Models/5_price_predictor_10_hidden_20.pth (torch, 12183 bytes, 5 tensors)

lstm.weight_ih_l0 f4 [80, 10]
0	0xbe13a87e	-0.14419743
1	0x3e0c106c	0.1367814
2	0x3e0a5ba0	0.13511515
3	0x3d133274	0.035936788
4	0xbd3fe53c	-0.046849474
5	0x3df24d9c	0.11831209
6	0x3e0ffffa	0.14062491
7	0x3d2051bc	0.039140448
8	0x3cecbb91	0.028898032
9	0xbd5c7c14	-0.053829268
10	0x3de9db4b	0.1141878
11	0xbdb5f8af	-0.08885323
12	0x3e478754	0.19485217
13	0x3e1ac086	0.15112504
14	0x3dd0f5c7	0.10203128
15	0x3d2ee9cb	0.04270343
16	0x3e2029fe	0.15641019
17	0xbe0c64ca	-0.13710323
18	0x3b7590c4	0.003747032
19	0x3e345d60	0.17613745
20	0xbdae0198	-0.08496398
21	0x3db4e5ec	0.088329166
22	0xbdc084be	-0.094003186
23	0xbe1a8204	-0.1508866
24	0xbdafc8f8	-0.085832536
25	0xbe4ac142	-0.19800285
26	0xbd419917	-0.04726514
27	0x3e1209b8	0.1426152
28	0x3db0db04	0.08635524
29	0xbc07e78d	-0.008294952
30	0xbe1cb2b2	-0.15302542
31	0xbe087fa6	-0.13329944
32	0xbe179cd1	-0.14805914
33	0xbdcf33d3	-0.101173066
34	0xbe1846ee	-0.14870808
35	0x3d12b0c8	0.035813123
36	0xbe2096b4	-0.15682489
37	0xbde0189b	-0.10942193
38	0x3d82b1e0	0.06381583
39	0x3bf07e45	0.0073392713
40	0xbe296ada	-0.16544667
41	0xbdaf1e2c	-0.08550677
42	0xbe117dd0	-0.1420815
43	0xbe22f410	-0.15913415
44	0x3cae74d6	0.021295946
45	0x3d1070d0	0.035263836
46	0xbdbce7f4	-0.09223929
47	0xbe25f288	-0.162058
48	0x3e334a0a	0.17508712
49	0x3d56c4f8	0.052433938
50	0x3e370106	0.17871484
51	0x3e54a964	0.20767742
52	0x3df4cff5	0.11953727
53	0xbe0e6e38	-0.13909233
54	0xbddd16a6	-0.107953355
55	0x3d3b75b4	0.045766547
56	0x3e48ad5e	0.19597384
57	0xbe30b18d	-0.1725523
58	0xbd78dda4	-0.060758248
59	0xbc60c959	-0.01371988
60	0xbcbd55f5	-0.023112277
61	0x3db7ea0c	0.08980188
62	0xbdb260d4	-0.08709875
63	0x3e5b027a	0.21387663
64	0x3dda3748	0.10655075
65	0xbdbc4456	-0.091927215
66	0x3e5625ac	0.20912808
67	0x3e2c0d3c	0.16801924
68	0xbe3daf80	-0.18523979
69	0xbd872a54	-0.0659987
70	0xbdab38bc	-0.083604306
71	0xbe342cdf	-0.17595242
72	0x3e3ed17a	0.18634596
73	0xbe5d1785	-0.21591003
74	0x3cd98050	0.026550442
75	0xbbceeb01	-0.0063146357
76	0x3d93771c	0.07200453
77	0xbd049584	-0.03236915
78	0x3e53dc9a	0.20689622
79	0xbdd19da3	-0.10235145
80	0x3db1c1eb	0.08679565
81	0xbd678f2e	-0.05653303
82	0xbe3b4a5a	-0.18290082
83	0xbdafc64f	-0.08582746
84	0xbd1a733e	-0.03770756
85	0x3e39ba80	0.1813755
86	0xbd86ab9b	-0.065757
87	0x3d6e8016	0.05822762
88	0xbd55c076	-0.0521855
89	0xbc8bb26d	-0.017052853
90	0x3cbfbca8	0.023405388
91	0x3e51e8c4	0.2049895
92	0xbd3ae8bd	-0.045632113
93	0x3e632722	0.22182897
94	0x3e182fc6	0.14861974
95	0xbe3f4f68	-0.18682635
96	0x3cd31b88	0.025769964
97	0xbdec590c	-0.11540422
98	0x3e1a906c	0.15094155
99	0x3e06f1da	0.13178197
100	0xbac08ea3	-0.0014690947
101	0x3d3d85af	0.04627007
102	0xbc8539e0	-0.016262949
103	0xbe5d869d	-0.21633382
104	0xbd077ad9	-0.03307614
105	0xbdad1e08	-0.08452994
106	0xbe3b6b96	-0.1830276
107	0xbdc22b2a	-0.09480889
108	0xbdd55133	-0.10415878
109	0x3d805024	0.062652856
110	0xbdc5ab3c	-0.09651801
111	0xbd74a92f	-0.05973166
112	0xbde6d50a	-0.11271103
113	0xbe210206	-0.15723428
114	0x3e2b2b64	0.16715771
115	0xbe1b868c	-0.15188044
116	0x3c1b4a9f	0.00947824
117	0x3e41da44	0.18930918
118	0xbe1b46ea	-0.1516377
119	0x3e604ed0	0.21905065
120	0x3dd8ad34	0.10579911
121	0xbe01aa2b	-0.1266257
122	0x3e12d01a	0.14337197
123	0x3deb6770	0.114943385
124	0x3da6ff08	0.08154112
125	0xbdd61af3	-0.10454359
126	0xbd0161d7	-0.031587448
127	0xbdc167b1	-0.09443606
128	0xbe160f6a	-0.14654317
129	0xbe27d4f4	-0.16389829
130	0x3de4d2ec	0.11173043
131	0x3d9de5fc	0.07709882
132	0xbe45f1d8	-0.19330537
133	0xbd8344a6	-0.06409578
134	0x3da5191c	0.0806143
135	0xbd5d3124	-0.054001942
136	0x3e3f947a	0.18708983
137	0x3e30433a	0.17213145
138	0x3e161628	0.1465689
139	0xbe0d34c2	-0.13789657
140	0x3c63c3d2	0.013901668
141	0xbe325d31	-0.17418362
142	0xbe29a9ad	-0.16568632
143	0xbda00820	-0.0781405
144	0xbb426ddf	-0.002966754
145	0x3d60c684	0.05487682
146	0x3e179452	0.14802673
147	0x3c762062	0.015022369
148	0x3e59db6e	0.21275112
149	0xbe12d12f	-0.1433761
150	0xbd080a2c	-0.033212826
151	0xbd836358	-0.06415433
152	0x3df652f0	0.12027538
153	0x3e18b398	0.1491226
154	0xbe1676e8	-0.14693797
155	0xbe0dff7e	-0.13866994
156	0xbe521a0b	-0.20517747
157	0xbdcb2e1a	-0.099209026
158	0x3d8ed15c	0.06973526
159	0xbe397c7f	-0.18113898
160	0xbe4c624b	-0.19959371
161	0xbdbaf68c	-0.09129056
162	0x3d220110	0.039551795
163	0x3d2d1c40	0.04226327
164	0xbd1d4210	-0.03839308
165	0xbe140c0c	-0.1445772
166	0x3dc16914	0.0944387
167	0x3e3f7abc	0.18699163
168	0xbe62a41f	-0.2213292
169	0x3bbc0eb5	0.005739058
170	0x3e59bb74	0.21262914
171	0xbdc67cd2	-0.09691776
172	0xbdeea415	-0.1165239
173	0xbd9a9924	-0.075487405
174	0x3e562e79	0.20916165
175	0xbe2b4fa6	-0.16729602
176	0x3e1c050b	0.15236299
177	0xbdd37891	-0.103257306
178	0xbdad899b	-0.08473512
179	0x3d4cbdb6	0.04998561
180	0x3d0c0f8a	0.034194507
181	0x3e4be144	0.19910151
182	0xbdeecb35	-0.116598524
183	0x3dab8c28	0.08376342
184	0xbdee3a57	-0.11632221
185	0xbdc13be0	-0.094352484
186	0xbdeb3bdb	-0.11486026
187	0xbccb514b	-0.024819037
188	0x3d2a20d9	0.041535232
189	0x3c8b4d0d	0.017004514
190	0x3dfd2309	0.12360198
191	0x3e45d932	0.19321135
192	0x3c8ff368	0.01757212
193	0xbdc9014c	-0.098147005
194	0xbda74674	-0.08167735
195	0x3c4692d6	0.012119969
196	0xbe1b51f5	-0.15167983
197	0xbe444a48	-0.19168961
198	0x3db3672f	0.08759915
199	0xbce16500	-0.02751398
200	0xbdb2bc04	-0.087272674
201	0x3d9bf090	0.07614243
202	0xbd866086	-0.06561379
203	0x3e018bb8	0.12650955
204	0x3dfa2054	0.12213197
205	0x3dba34ac	0.090920776
206	0xbca23ba8	-0.019803837
207	0xbddf24fb	-0.10895725
208	0xbcee1808	-0.029064193
209	0xbe178372	-0.14796236
210	0xbe450e8f	-0.19243835
211	0x3df445bc	0.11927363
212	0xbd637e50	-0.055540383
213	0xbe3407e8	-0.17581141
214	0xbd769488	-0.060200244
215	0x3ba237a0	0.0049504787
216	0x3e04c4a2	0.12965634
217	0x3e0d93c0	0.13825893
218	0x3c9f4100	0.019440174
219	0xbe14858c	-0.14504069
220	0xbe2dd2ef	-0.16974996
221	0x3dc509fc	0.09621045
222	0xbd1293c4	-0.03578545
223	0x3c4535a0	0.012036711
224	0x3df9856c	0.12183651
225	0x3c2f8290	0.010712281
226	0x3e25a8f6	0.16177735
227	0x3e5cbf4c	0.21557349
228	0x3e61430c	0.21998233
229	0xbdc8f912	-0.098131314
230	0x3c05a650	0.008157328
231	0xbcf3c358	-0.029756233
232	0xbd51e960	-0.051247954
233	0xbb63fd80	-0.003478855
234	0xbe54a5d2	-0.2076638
235	0x3d02d348	0.031939775
236	0x3d793a78	0.060846776
237	0xbe14be6a	-0.14525762
238	0x3dc11654	0.09428087
239	0xbda71ee6	-0.0816019
240	0x3db81478	0.08988279
241	0x3e11ec30	0.14250255
242	0xbe50f625	-0.20406397
243	0x3e3daed8	0.18523729
244	0x3e4320cc	0.1905548
245	0x3d951648	0.072796404
246	0xbdfa8f98	-0.122344196
247	0xbe523bb2	-0.20530584
248	0x3da29574	0.07938662
249	0xbde152d0	-0.11002123
250	0xbd28fdfc	-0.041257843
251	0xbdd5d2c3	-0.1044059
252	0x3e3c3bb4	0.1838215
253	0xbcf070a0	-0.029350579
254	0xbd53e460	-0.051731467
255	0xbd7ec20c	-0.062196776

lstm.weight_hh_l0 f4 [80, 20]
0	0x3e1ec9e0	0.15506697
1	0x3e44b5b0	0.19209933
2	0xbda54e9e	-0.08071636
3	0xbe19f3ef	-0.1503446
4	0xbde75eb7	-0.11297362
5	0xbd9ab0fa	-0.07553287
6	0x3e25aa48	0.16178238
7	0xbdf388d5	-0.11891333
8	0xbd5885dc	-0.052862033
9	0xbe18ce34	-0.1492241
10	0xbd9461ca	-0.07245214
11	0xbe2e5b08	-0.17026913
12	0xbdb42cbe	-0.087975964
13	0xbb931400	-0.004488468
14	0x3daa0748	0.0830217
15	0x3e64d07e	0.22345158
16	0xbd45be90	-0.048277438
17	0x3e019a9a	0.12656632
18	0x3dc6cccc	0.09707031
19	0x3e0f6b16	0.14005694
20	0x3e3a358a	0.18184486
21	0xbdf45aac	-0.11931357
22	0xbd5de2d0	-0.054171383
23	0x3e1d966e	0.15389416
24	0x3d586b58	0.052836746
25	0x3e181a96	0.14853892
26	0xbe221be4	-0.15830952
27	0x3c3b0e50	0.011416987
28	0xbe40da54	-0.18833286
29	0xbdada51e	-0.08478759
30	0xbcde2c00	-0.02712059
31	0x3de74900	0.112932205
32	0x3e4c22fa	0.19935217
33	0x3db9a148	0.09063965
34	0xbd3e30ac	-0.046433136
35	0x3d30e300	0.043185234
36	0xbe5e9123	-0.21735053
37	0x3dcc3854	0.09971681
38	0xbda47ce4	-0.080316335
39	0xbe21e7ca	-0.15811077
40	0x3e3915ec	0.18074769
41	0xbe21278f	-0.15737747
42	0xbc9114e8	-0.017710164
43	0xbe0e1f07	-0.13879023
44	0xbc88eb88	-0.016713873
45	0xbe308dfe	-0.17241666
46	0xbcf8dce0	-0.030378759
47	0xbe5e7af3	-0.21726589
48	0x3e46afc2	0.19402984
49	0x3d34f278	0.04417655
50	0x3df4896c	0.11940274
51	0xbe5dc69e	-0.21657798
52	0xbd957cec	-0.072992176
53	0xbe037aae	-0.12839767
54	0xbd107f94	-0.035277918
55	0x3e0d76f2	0.13814905
56	0xbd893d90	-0.06701195
57	0xbe58abd5	-0.21159299
58	0xbd1c6404	-0.03818132
59	0xbde46b4a	-0.11153276
60	0xbd29a9b0	-0.041421592
61	0xbdeefde8	-0.116695225
62	0xbdbe721c	-0.092991084
63	0xbe5f90cc	-0.2183258
64	0x3d844e2c	0.064602226
65	0x3e5bb60e	0.21456167
66	0x3e1c86ea	0.1528584
67	0x3e4862bc	0.19568914
68	0xbe4cf4b1	-0.20015217
69	0x3e29356c	0.16524285
70	0xbe085dea	-0.13317075
71	0x3e342f50	0.17596173
72	0xbe086073	-0.13318042
73	0xbd58e28c	-0.052950427
74	0x3e39d426	0.18147334
75	0x3de547f8	0.111953676
76	0xbdcc8bdd	-0.09987614
77	0xbddda224	-0.108219415
78	0xbd552704	-0.05203916
79	0x3d756ad0	0.059916317
80	0x3cd0fbc8	0.025510684
81	0x3ce526b0	0.02797255
82	0x3e1a25dc	0.15053505
83	0xbdfff380	-0.12497616
84	0x3d89f210	0.06735623
85	0x3c649e30	0.01395373
86	0xbe063af0	-0.1310842
87	0x3dd9577c	0.106123894
88	0x3de269e4	0.11055353
89	0xbc66b660	-0.0140815675
90	0xbde69a2a	-0.11259873
91	0x3e2c772e	0.16842338
92	0x3b27c340	0.0025598556
93	0xbde64c04	-0.112449676
94	0x3c532190	0.01288642
95	0x3dd114dc	0.10209057
96	0x3e4dce20	0.20098162
97	0x3e244164	0.1604057
98	0x3d6f5260	0.05842817
99	0x3e138bce	0.144088
100	0xbe4baf5a	-0.1989111
101	0x3e3dc574	0.18532354
102	0xbe1ed1ee	-0.1550977
103	0xbdebab5d	-0.11507294
104	0xbe1e3f26	-0.15453777
105	0x3db62030	0.08892858
106	0x3d2fea40	0.042948008
107	0x3e40b862	0.18820336
108	0x3e34e170	0.17664123
109	0xbe4fae45	-0.20281322
110	0xbe10a319	-0.14124717
111	0xbde67537	-0.11252826
112	0x3e0d01e2	0.1377025
113	0x3e0ea6ce	0.13930818
114	0xbd612844	-0.05497004
115	0xbd83be5c	-0.064327925
116	0x3e087798	0.13326871
117	0x3e448644	0.19191843
118	0x3d981cf4	0.07427397
119	0xbe40de22	-0.18834737
120	0x3e483f4e	0.19555399
121	0x3e30a5ba	0.1725072
122	0xbe3d3b86	-0.18479738
123	0xbdcf49d5	-0.10121504
124	0xbd979402	-0.07401277
125	0x3e354136	0.17700657
126	0xbcb2ca90	-0.021825105
127	0x3dd97544	0.1061807
128	0xbc82d9d0	-0.015973002
129	0x3e5178d8	0.20456254
130	0x3e04b25c	0.12958664
131	0x3d9d387c	0.07676789
132	0xbe151892	-0.14560154
133	0xbe2a1f28	-0.16613448
134	0x3e264c88	0.16240132
135	0xbd84463a	-0.06458707
136	0x3e61f0f0	0.22064567
137	0xbe128e17	-0.14312015
138	0x3d941040	0.07229662
139	0x3dff0b84	0.12453368
140	0x3e4dd516	0.20100817
141	0xbde6427c	-0.1124315
142	0xbdd6dd6d	-0.10491452
143	0xbdc0bdb8	-0.09411186
144	0x3d9ebdf8	0.077510774
145	0xbe448a97	-0.19193493
146	0x3d305cb8	0.043057173
147	0x3de36090	0.11102402
148	0x3dc26500	0.094919205
149	0xbdab9ebc	-0.083798856
150	0xbdecd01f	-0.115631334
151	0x3e44777c	0.19186205
152	0x3e25c30a	0.16187683
153	0xbd808370	-0.0627507
154	0xbd8d84be	-0.06910084
155	0x3e13a5a4	0.14418656
156	0xbe0b6a14	-0.13614684
157	0xbe43983c	-0.19101042
158	0xbd3e94f8	-0.046528786
159	0x3e08579c	0.1331467
160	0x3e307f06	0.17235956
161	0x3d6f3570	0.05840057
162	0xbd2d032c	-0.042239353
163	0xbd388cbc	-0.04505609
164	0xbe233dd5	-0.15941556
165	0xbda99e2a	-0.082821205
166	0xbe46203e	-0.19348237
167	0xbdeda69a	-0.11604042
168	0xbe6399ea	-0.22226682
169	0x3df81894	0.12114063
170	0xbe14587a	-0.14486876
171	0x3c13a6b0	0.009011909
172	0xbe273fb6	-0.16332898
173	0xbe635ab1	-0.22202565
174	0x3adde400	0.0016928911
175	0x3d5c9f70	0.05386299
176	0xbe4cd7f5	-0.20004256
177	0x3e1b9aa0	0.15195704
178	0x3de9e740	0.114210606
179	0xbd81d662	-0.063397184
180	0xbe084bf2	-0.13310221
181	0x3ddafc0c	0.106926054
182	0xbc909620	-0.01764971
183	0x3deb8598	0.1150009
184	0x3d977158	0.073946655
185	0xbd47a8e0	-0.048745036
186	0x3cb57818	0.022151992
187	0xbb36aa00	-0.0027872324
188	0x3e51b8a0	0.20480585
189	0x3dc2c2fc	0.095098466
190	0x3d9e7990	0.0773803
191	0xbe3d30fb	-0.18475716
192	0x3e15939e	0.14607093
193	0x3e0ebf80	0.13940239
194	0x3d2b50a8	0.041824967
195	0x3e26ef9a	0.16302338
196	0x3e0773e4	0.13227803
197	0x3db7481c	0.08949301
198	0x3e120b1e	0.14262053
199	0xbd3038b4	-0.043022826
200	0xbda967de	-0.08271764
201	0x3e144854	0.14480716
202	0xbe48772c	-0.1957671
203	0x3d5b7b18	0.05358419
204	0x3e2f4d98	0.17119443
205	0x3d88a4f8	0.0667209
206	0xbe1d849a	-0.15382615
207	0xba39af00	-0.0007083267
208	0x3d61cd28	0.055127293
209	0xbc8bf818	-0.017086074
210	0xbbe23b80	-0.0069040656
211	0xbcee95b0	-0.029124111
212	0xbe432b94	-0.19059592
213	0x3dcae5c8	0.099071085
214	0x3e1b6f8a	0.15179268
215	0x3c90c648	0.017672673
216	0xbe55a632	-0.2086418
217	0x3e07824e	0.13233301
218	0x3e412a5e	0.18863818
219	0xbddcba4a	-0.10777719
220	0xbe1cf930	-0.15329432
221	0x3e3a751a	0.18208733
222	0x3d0164d8	0.031590313
223	0x3c9dc440	0.019258618
224	0xbdc3667a	-0.0954103
225	0x3e2b9dda	0.16759434
226	0x3df7cb70	0.120993495
227	0xbe3eb1b8	-0.18622482
228	0xbc906ac0	-0.017629027
229	0x3d9554b8	0.072915494
230	0xbd8e650c	-0.06952867
231	0x3e2ba958	0.16763818
232	0xbe3087f2	-0.17239359
233	0x3def1908	0.11674696
234	0xbda202c6	-0.07910685
235	0xbddf6ae7	-0.10909062
236	0x3de84044	0.11340383
237	0xbdc5f6aa	-0.09666188
238	0x3e2ea34c	0.1705448
239	0xbe4a4714	-0.19753677
240	0x3de81224	0.11331585
241	0x3e300720	0.17190218
242	0xbe1d162c	-0.15340489
243	0xbd8d391c	-0.068956584
244	0xbdeb67eb	-0.1149443
245	0x3d7862c8	0.06064108
246	0xbdc0ac12	-0.0940782
247	0x3e403e14	0.18773681
248	0x3e3afa4c	0.18259543
249	0x3cf0bb40	0.029386163
250	0xbcfe6670	-0.031054705
251	0x3d668dd8	0.056287616
252	0xbd90abb4	-0.07064
253	0xbda019d4	-0.07817426
254	0x3ddf3510	0.10898793
255	0x3e2adf1c	0.16686672

lstm.bias_ih_l0 f4 [80]
0	0x3e641614	0.22274047
1	0xbd80d7e7	-0.0629118
2	0x3d8c4acd	0.068502046
3	0x3e1f726a	0.15570989
4	0xbdf49c87	-0.11943918
5	0xbdd23d87	-0.10265642
6	0x3e26c69a	0.16286698
7	0xbe11b4e8	-0.14229167
8	0xbbff54c2	-0.0077920863
9	0x3d005b47	0.03133705
10	0x3e11fca0	0.14256525
11	0x3d8999bc	0.06718776
12	0x3e063587	0.13106357
13	0x3dbb873c	0.09156653
14	0x3d28df43	0.041228544
15	0x3e184fca	0.14874187
16	0x3d96bc71	0.07360161
17	0xbc024247	-0.007950372
18	0xbdcff830	-0.1015476
19	0x3dea3dbc	0.11437556
20	0x3d0f2448	0.03494671
21	0x3e211eb2	0.15734366
22	0xbc9c4660	-0.019076526
23	0x3e06131e	0.1309323
24	0x3d9f5904	0.0778065
25	0xbd6256a4	-0.05525841
26	0x3c09c750	0.008409336
27	0x3e2d13aa	0.16902032
28	0xbcd12fe0	-0.025535524
29	0xbdfd626b	-0.12372287
30	0xbe30e2a4	-0.17273957
31	0x3d338840	0.04383111
32	0xbdc7e4fc	-0.09760472
33	0xbe6130c1	-0.21991254
34	0xbe564d39	-0.20927896
35	0x3d574a10	0.052560866
36	0x3c63aae0	0.01389572
37	0x3e31fb92	0.17381123
38	0x3e21be4e	0.15795252
39	0x3e4cadb2	0.19988135
40	0xbbb531d4	-0.0055296216
41	0xbd668318	-0.056277364
42	0xbdddcb3c	-0.108297795
43	0xbdcdc743	-0.10047772
44	0x3d6c3210	0.05766493
45	0xbd08fda5	-0.03344502
46	0xbe2a786a	-0.16647497
47	0x3dac4ea8	0.0841344
48	0xbe105686	-0.14095506
49	0xbd55781c	-0.0521165
50	0x3e61851c	0.22023433
51	0x3d0b2450	0.033970177
52	0x3e42fe44	0.19042307
53	0x3cee476f	0.029086797
54	0x3cf67c73	0.030088639
55	0x3de5b630	0.1121639
56	0x3e4e21b8	0.2013005
57	0xbe31f8f6	-0.17380127
58	0xbded327e	-0.11581896
59	0x3dd1bc3c	0.10240981
60	0x3d86796c	0.06566128
61	0xbca4d862	-0.02012271
62	0x3e237b59	0.15965022
63	0xbe3b4105	-0.18286522
64	0xbe0eb078	-0.13934505
65	0x3d918300	0.071050644
66	0xbd198776	-0.0374827
67	0xbe4ab294	-0.19794685
68	0x3da99625	0.08280591
69	0x3e0d640e	0.13807699
70	0xbb3edf60	-0.002912484
71	0xbe3717f8	-0.17880237
72	0xbe14fadc	-0.1454882
73	0xbd21710c	-0.03941445
74	0xbe61eac1	-0.22062208
75	0xbd0a93c2	-0.03383232
76	0x3cf237f3	0.029567694
77	0x3e27cbc7	0.16386329
78	0x3d310f80	0.043227673
79	0xbe0463ca	-0.12928692

lstm.bias_hh_l0 f4 [80]
0	0x3e04d502	0.12971881
1	0x3dc4cb91	0.0960914
2	0x3decb409	0.115577765
3	0x3d34e76d	0.044166017
4	0xbe0cb19e	-0.1373963
5	0xbda806b6	-0.08204405
6	0x3e3d0dd6	0.18462309
7	0xbd4299fc	-0.047510132
8	0xbe3fe632	-0.18740156
9	0x3d052961	0.032510165
10	0xbbb869b0	-0.0056278333
11	0x3da6df24	0.081480294
12	0x3e1847af	0.14871095
13	0xbdc3efc2	-0.095672145
14	0xbdd4b4d0	-0.1038605
15	0x3c7db357	0.0154846525
16	0xbe59c3b7	-0.21266066
17	0x3d43cd92	0.04780347
18	0xbe0b72da	-0.13618031
19	0xbc29eefd	-0.010371921
20	0xbcf54798	-0.029941365
21	0x3e34d0ae	0.1765773
22	0xbd642440	-0.055698633
23	0x3d5d98b0	0.054100692
24	0x3dee3f7c	0.116332024
25	0x3d3a0e38	0.045423716
26	0x3d61be90	0.055113375
27	0x3e20a132	0.15686491
28	0x3e28324c	0.16425437
29	0x3e4b5622	0.19857076
30	0xbe0a1fb2	-0.13488653
31	0x3d8f1e98	0.06988257
32	0x3cf23b90	0.029569417
33	0xbc304180	-0.010757804
34	0xbe1b3276	-0.15155968
35	0xbe3ada83	-0.18247418
36	0x3dbdb284	0.09262565
37	0x3d269920	0.040673375
38	0x3e05c174	0.13062078
39	0xbe0bc3ee	-0.1364896
40	0xbdba0412	-0.090828076
41	0x3e2efcb0	0.1708858
42	0x3e352f3b	0.17693798
43	0xbda32802	-0.07966615
44	0x3dcc0d54	0.0996348
45	0x3de074eb	0.109598
46	0x3dc1c8b0	0.09462106
47	0xbcbfe7d0	-0.023425967
48	0x3e30be68	0.17260134
49	0xbda1156a	-0.078654125
50	0xbe217623	-0.15767722
51	0x3bf38000	0.0074310303
52	0xbcddbce0	-0.027067602
53	0xbe48e5c5	-0.196189
54	0xbe102d3d	-0.14079757
55	0xbe0e185b	-0.13876478
56	0x3e23c6de	0.1599383
57	0x3d73b70b	0.059500735
58	0xbcd92707	-0.026507868
59	0x3e2c3274	0.16816121
60	0x3da57ca4	0.08080414
61	0xbe4dc977	-0.20096384
62	0x3df24266	0.11829071
63	0x3e0b8361	0.13624336
64	0x3dec9cac	0.1155332
65	0x3e2d1350	0.16901898
66	0xbe52b53d	-0.2057695
67	0x3e47b686	0.19503221
68	0xbe594d80	-0.2122097
69	0x3e0fb8c8	0.14035332
70	0x3d1ccc68	0.038280874
71	0xbd176bbd	-0.03696798
72	0x3dc90fd9	0.09817476
73	0xbe49ec24	-0.19718987
74	0x3e3803ac	0.1797015
75	0x3e48594e	0.19565317
76	0xbe594253	-0.21216707
77	0xbe14d14e	-0.14532968
78	0xbe5817e3	-0.21102862
79	0xbe57a834	-0.21060258

fc.weight f4 [1, 20]
0	0xbe22443c	-0.15846342
1	0xbe62e289	-0.22156729
2	0x3c8686dc	0.016421728
3	0xbe3ae6c1	-0.18252088
4	0xbe5913cb	-0.21198957
5	0x3e31a98c	0.17349833
6	0xbd01f5c4	-0.03172852
7	0x3e0c9f66	0.1373268
8	0x3d2dbf36	0.04241868
9	0x3e593526	0.21211681
10	0xbe030419	-0.12794532
11	0x3e378dc0	0.17925167
12	0xbd949940	-0.072557926
13	0xbe2bc9a0	-0.16776133
14	0xbd74eeaf	-0.05979794
15	0xbe227b20	-0.15867281
16	0x3db603af	0.08887421
17	0x3cef45f9	0.02920817
18	0x3e5fd326	0.2185789
19	0xbdadbe14	-0.0848352
