Models/5_price_predictor_5_hidden_150.pth (torch, 379351 bytes, 5 tensors)

lstm.weight_ih_l0 f4 [600, 5]
-0.002694848 -0.013576895 0.047249958 -0.06474539 0.02570951 -0.012981416 -0.033362575 -0.07249776
0.07045087 -0.04305371 0.011428252 -0.003925805 -0.046512343 0.04243142 0.019104794 -0.059526555
0.080096126 0.015135765 -0.002541411 -0.076594725 -0.023488365 -0.0807093 0.073648974 0.051210865
0.004159684 0.04541276 -0.042259715 -0.0634854 -0.01312197 -0.024172906 -0.048686296 0.05546175
-0.06414381 0.05024825 -0.031288423 -0.038931854 -0.060238816 -0.019142821 -0.0174471 0.019511394
-0.00427087 0.04113889 -0.06606999 0.076556236 0.060151976 0.0048670825 -0.067319505 0.010051421
0.050875247 0.022302277 -0.032785468 0.056627423 0.042949393 0.07576208 0.036743425 -0.079582594
-0.019749817 0.058664158 -0.07052526 -0.0745678 -0.0025587855 -0.023282465 -0.07523947 -0.06163586
-0.07314637 -0.04861858 0.00633427 -0.021137575 -0.019040158 0.06434104 -0.06999019 -0.013313867
-0.010658391 -0.05593615 -0.045792762 -0.059066802 -0.029469643 0.06492393 -0.030004442 0.00235726
-0.028144471 0.010396246 0.016514707 -0.016858492 -0.040324677 0.0008709467 -0.00559969 0.058983207
-0.043652475 0.07201728 -0.009476453 0.04861008 0.067101106 0.012239344 -0.07096705 0.054150224
0.028124943 0.055355534 0.031030782 -0.011661522 0.043606512 -0.05075041 0.0051950994 0.061523568
-0.06724457 -0.057368174 0.01706378 0.014307639 -0.012486884 -0.004643124 0.029911727 0.00043173184
-0.047004182 -0.06943598 -0.06560717 -0.033801477 -0.011839837 -0.01940415 -0.01604022 0.0047827377
0.041227184 0.049418762 -0.035615306 -0.014750217 0.045916125 0.028109834 -0.060601562 -0.07147962
0.05037421 0.042341553 -0.024081275 -0.06632377 0.026659742 -0.03919662 0.0764723 -0.047472987
0.0077132224 -0.073936924 0.051084686 0.044085804 -0.0026255634 0.05047378 -0.06631847 0.055034533
0.003662436 -0.001575917 -0.00058352965 0.0688487 0.001236625 0.06268346 -0.0028039133 -0.060553625
0.03967181 -0.04251177 -0.03975723 -0.038041435 -0.011928089 0.017423078 0.009817041 -0.054937035
0.05066988 -0.043969747 0.08083551 0.039154254 -0.080209315 0.052133236 -0.069440916 -0.040908534
-0.063507885 0.070031196 0.057055607 -0.07683457 0.07489538 -0.059944317 -0.07250929 -0.00507808
0.008743286 -0.0067217452 0.028787896 0.031272307 0.050042227 0.0039367434 -0.024172306 0.024961576
-0.028030187 -0.054299362 0.066106915 0.017974451 -0.0056276787 0.019421011 0.07392135 -0.06603022
-0.026097365 -0.011736579 0.0087234005 -0.055372786 -0.071642905 0.0027007007 -0.081365176 0.052170973
-0.039153457 -0.061640874 -0.025533495 -0.070928924 0.06149167 -0.034264844 -0.042741302 0.07836121
-0.060161572 -0.07732119 -0.02968654 -0.030747995 0.0810166 -0.08021785 0.068179935 0.010094896
-0.029019833 0.07756473 -0.060609687 0.0726224 0.035035826 -0.04195586 0.07467936 0.004959288
-0.047571134 0.062425345 0.06718919 -0.05663033 0.073513806 0.03815046 0.033279303 0.015443467
-0.06222161 0.014224991 0.05731334 -0.04794725 -0.040171392 -0.032359544 0.07615633 -0.044127632
-0.07378934 -0.03457182 0.024574704 -0.05537544 0.021015346 0.05468744 0.0101917535 0.07361145
0.057569295 -0.03498677 0.017430268 0.05101776 0.034995824 0.0736838 -0.015357725 -0.01858329
00000000: 0c9c 30bb a071 5ebc 2c89 413d 3b99 84bd
00000010: c09c d23c 01b0 54bc 32a7 08bd b579 94bd
00000020: 8c48 903d 1659 30bd 903d 3b3c 0aa4 80bb
00000030: ba83 3ebd 92cc 2d3d a881 9c3c 1ed2 73bd
00000040: 7009 a43d 00fc 773c cd8d 26bb b2dd 9cbd
00000050: ac6a c0bc eb4a a5bd 46d5 963d 7cc2 513d
00000060: f54d 883b bb02 3a3d 8618 2dbd a204 82bd
00000070: 88fd 56bc 4206 c6bc 486b 47bd dc2b 633d
00000080: d45d 83bd 1cd1 4d3d 4a28 00bd 0277 1fbd
00000090: fabc 76bd 68d1 9cbc 38ed 8ebc 5cd6 9f3c
000000a0: a7f2 8bbb 4181 283d b44f 87bd 84c9 9c3d
000000b0: eb61 763d 0c7c 9f3b cfde 89bd b7ae 243c
000000c0: 9062 503d 44b3 b63c 0e4a 06bd 28f2 673d
000000d0: b4eb 2f3d 2629 9b3d 4680 163d 33fc a2bd
000000e0: 5eca a1bc d449 703d 8c6f 90bd 01b7 98bd
000000f0: 4cb1 27bb deba bebc 2717 9abd e275 7cbd
00000100: c4cd 95bd 4724 47bd b58f cf3b b528 adbc
00000110: 1bfa 9bbc 3cc5 833d 0457 8fbd 6822 5abc
00000120: 88a0 2ebc 4e1d 65bd 3191 3bbd 08f0 71bd
00000130: 526a f1bc d6f6 843d e0cb f5bc 437c 1a3b
00000140: 3c8f e6bc 0455 2a3c da49 873c d21a 8abc
00000150: 7d2b 25bd 3e50 643a 9b7d b7bb 6098 713d
00000160: f0cc 32bd cc7d 933d 2043 1bbc 5d1b 473d
00000170: 4e6c 893d 8887 483c 2c57 91bd a0cc 5d3d
00000180: 4866 e63c 7cbc 623d 4434 fe3c f80f 3fbc
00000190: be9c 323d a9df 4fbd a73b aa3b 2300 7c3d
000001a0: 85b7 89bd e4fa 6abd 57c9 8b3c 966a 6a3c
000001b0: ca95 4cbc 5925 98bb 7009 f53c 115a e239
000001c0: 7587 40bd 7334 8ebd 0d5d 86bd 6b73 0abd
000001d0: e0fb 41bc 74f5 9ebc c866 83bc 83b8 9c3b
000001e0: d6dd 283d 546b 4a3d 5be1 11bd e5aa 71bc
000001f0: 8c12 3c3d 9846 e63c 5839 78bd e863 92bd
00000200: 3055 4e3d 566e 2d3d 1846 c5bc c2d4 87bd
00000210: 8865 da3c a38c 20bd 829d 9c3d 0973 42bd
00000220: 33bf fc3b 3e6c 97bd 2d3e 513d 5193 343d
00000230: a511 2cbb 98bd 4e3d fad1 87bd e46b 613d
00000240: 7b05 703b 008f ceba 03f8 18ba 8c00 8d3d
00000250: 4016 a23a 3060 803d dcc1 37bb 1407 78bd
00000260: e87e 223d d220 2ebd 7ad8 22bd 56d1 1bbd
00000270: 086e 43bc d8ba 8e3c a8d7 203c a805 61bd
00000280: 388b 4f3d 9f19 34bd 168d a53d 3660 203d
00000290: c844 a4bd a989 553d 0a37 8ebd b58f 27bd
000002a0: 6c10 82bd 846c 8f3d 24b3 693d 715b 9dbd
000002b0: c062 993d 2c88 75bd c07f 94bd 0666 a6bb
000002c0: 0040 0f3c 1642 dcbb 98d4 eb3c 6417 003d
000002d0: 14f9 4c3d ccff 803b 0005 c6bc 387c cc3c
000002e0: 909f e5bc 0269 5ebd 1063 873d 283f 933c
000002f0: 6468 b8bb d018 9f3c 1464 973d da3a 87bd
00000300: 24ca d5bc c84a 40bc 98ec 0e3c 93ce 62bd
00000310: 84b9 92bd 3dfe 303b c9a2 a6bd 3bb1 553d
00000320: 605f 20bd 247b 7cbd 9f2b d1bc 2f43 91bd
00000330: b0de 7b3d 4b59 0cbd 8111 2fbd d87b a03d
00000340: fb6b 76bd 925a 9ebd 3031 f3bc 38e3 fbbc
00000350: 08ec a53d 4249 a4bd eca1 8b3d 1065 253c
00000360: 00bb edbc 42da 9e3d dd41 78bd 0ebb 943d
00000370: ba81 0f3d e8d9 2bbd 7ef1 983d 8681 a23b
00000380: f3d9 42bd b8b1 7f3d 7c9a 893d 34f5 67bd
00000390: 688e 963d a843 1c3d e14f 083d 9806 7d3c
000003a0: 16dc 7ebd f00f 693c 65c1 6a3d 5664 44bd
000003b0: c28a 24bd 718b 04bd daf7 9b3d 2dbf 34bd
000003c0: de1e 97bd 2e9b 0dbd e450 c93c 5bd1 62bd
000003d0: 6028 ac3c f0ff 5f3d 50fb 263c 9ac1 963d
000003e0: c8cd 6b3d 4a4e 0fbd ecc9 8e3c 00f8 503d
000003f0: c857 0f3d 88e7 963d f89e 7bbc fc3b 98bc

lstm.weight_hh_l0 f4 [600, 150]
0.015748821 -0.017983638 -0.076247305 0.061776936 -0.056513153 0.07326943 0.019746698 0.039732568
0.04554075 -0.04672876 0.0112918615 -0.071016364 -0.033306997 0.03748607 -0.007521637 -0.009766556
0.06341198 0.053128093 -0.043938447 -0.01411695 0.05574946 -0.012016773 0.014656894 -0.0006764829
-0.030707479 -0.041306797 0.05096571 -0.031117614 -0.048014812 0.014316447 0.07613087 -0.0134261325
-0.053669997 0.0028597713 -0.04856183 -0.011710115 -0.056546077 0.016030505 0.04840778 -0.03926445
-0.018453985 0.014506631 -0.020378727 -0.0065520927 -0.040562496 -0.012763932 0.026674137 -0.036362488
-0.044015117 -0.014754429 -0.01948496 -0.032789007 0.06957966 -0.028517593 0.0064685717 -0.064437956
0.013415828 -0.019043557 -0.077454865 0.07604693 -0.032001242 0.032730155 -0.02395035 0.0053409114
-0.048835058 0.0049506202 -0.056925252 0.00018656999 0.03808856 -0.062380366 -0.021901578 0.0667527
-0.045462932 0.03123694 -0.02198033 0.07161428 0.028656334 -0.034070622 0.029958293 0.020063318
0.0073037148 -0.029289156 -0.030521125 0.043643236 -0.04030603 -0.028232422 -0.027119126 -0.06983431
0.081444696 -0.023256056 0.01859565 0.0146941915 -0.06130834 0.0061750337 -0.0038085878 -0.033105195
0.060313404 0.035995856 0.028118625 0.028448835 0.016838402 -0.031312536 0.037329383 -0.03416741
-0.008175343 -0.014402941 0.016804568 -0.012825578 -0.08110145 0.06969449 -0.07877493 -0.002166681
0.076685116 -0.032040477 0.01112473 -0.055110715 -0.054650363 -0.020538472 -0.0004998371 0.016197346
-0.014616787 -0.030342828 -0.021029308 0.03355232 0.06536023 0.043464452 -0.023271982 0.011395529
-0.075984016 0.0064099208 -0.05497589 0.008818276 -0.037052426 -0.07076776 0.003639184 -0.0055766106
-0.051567964 -0.03472014 0.0009922311 0.010419883 0.075711325 0.033341967 0.024601594 -0.021756113
-0.055365816 -0.013107441 0.008203417 0.01737839 0.031593993 -0.01825194 -0.060075887 0.020904943
-0.03431454 -0.06635958 -0.041203305 -0.04961475 0.0006932318 0.050990105 -0.02130853 0.017041527
-0.0533946 0.013277136 -0.07002046 0.02916728 -0.0203907 0.027969234 0.064853504 0.033574633
-0.0753347 -0.008611664 -0.037661176 -0.0014589354 0.051820293 -0.02159588 -0.056806378 0.014482468
-0.05089686 -0.076263234 0.03497512 -0.013447702 -0.048492987 -0.06234186 0.041609645 0.03132361
-0.003160134 -0.04227283 0.025422134 -0.060775988 0.07306686 -0.07596091 -0.071326174 -0.050857373
-0.03175304 0.039248966 0.04433687 0.01142212 -0.06647273 -0.058008417 0.021368563 -0.016081296
0.0663078 -0.04504613 0.0059464574 -0.022964668 0.017435618 0.016133428 -0.006578125 0.053331435
-0.07357417 0.036528565 -0.04660174 -0.03802825 0.07555604 -0.029145785 0.020576723 0.07348426
0.045231402 -0.07204923 0.039247744 -0.06267786 0.008257993 -0.06560989 0.06929752 -0.07805186
-0.018263541 -0.02196068 -0.047365956 -0.0797681 -0.06819196 -0.07348651 -0.024931535 0.048544705
-0.055406667 -0.0762297 0.064906076 0.03613817 -0.05588043 0.075800985 0.048204824 0.0034677163
0.0746268 0.02975139 0.043830305 0.0528242 -0.019770838 -0.07772793 0.074484795 -0.0249522
0.013772547 0.02148483 -0.06970637 -0.026241016 0.054563507 0.033865206 0.0013297647 0.020034358
00000000: ac03 813c 6c52 93bc 8c27 9cbd d009 7d3d
00000010: 567a 67bd 480e 963d d4c3 a13c 9ebe 223d
00000020: f088 3a3d a866 3fbd 8001 393c 0771 91bd
00000030: eb6c 08bd fe8a 193d 1078 f6bb e803 20bc
00000040: 24de 813d d89c 593d cdf8 33bd c84a 67bc
00000050: 8c59 643d 00e2 44bc 7823 703c 0056 31ba
00000060: 408e fbbc 5131 29bd 6cc1 503d 5eea febc
00000070: 2eab 44bd 888f 6a3c 80ea 9b3d 48f9 5bbc
00000080: 12d5 5bbd 006b 3b3b c5e8 46bd c8db 3fbc
00000090: dc9c 67bd 6852 833c 3c47 463d c3d3 20bd
000000a0: d02c 97bc 38ad 6d3c 4af1 a6bc f0b2 d6bb
000000b0: dc24 26bd d01f 51bc b883 da3c d5f0 14bd
000000c0: 3249 34bd 90bc 71bc ec9e 9fbc c44d 06bd
000000d0: c87f 8e3d ba9d e9bc 50f6 d33b 0cf8 83bd
000000e0: 10ce 5b3c 3c01 9cbc a8a0 9ebd 7ebe 9b3d
000000f0: bc13 03bd 0e10 063d 8633 c4bc d002 af3b
00000100: 4507 48bd d038 a23b 742a 69bd 00a2 4339
00000110: c002 1c3d 8e82 7fbd f06a b3bc a4b5 883d
00000120: 5737 3abd 9ce4 ff3c 1810 b4bc 82aa 923d
00000130: b0c0 ea3c a38d 0bbd 186b f53c d45b a43c
00000140: 0054 ef3b d0ef efbc 7007 fabc 40c3 323d
00000150: f017 25bd ae47 e7bc ee28 debc 4a05 8fbd
00000160: 7acc a63d 7c83 bebc e855 983c e8bf 703c
00000170: 741e 7bbd f057 ca3b 8099 79bb 5099 07bd
00000180: 300b 773d 6470 133d 0859 e63c 880d e93c
00000190: b0f0 893c 9341 00bd b2e6 183d 20f3 0bbd
000001a0: e0f1 05bc 50fa 6bbc bca9 893c 6022 52bc
000001b0: 8418 a6bd fcbb 8e3d c054 a1bd e0fe 0dbb
000001c0: 160d 9d3d e03c 03bd 8044 363c c6bb 61bd
000001d0: 0fd9 5fbd 4c40 a8bc 8007 03ba 4cb0 843c
000001e0: 407b 6fbc 8691 f8bc a845 acbc 286e 093d
000001f0: 96db 853d c807 323d e2a4 bebc 50b4 3a3c
00000200: 829d 9bbd 500a d23b 662e 61bd 887a 103c
00000210: 49c4 17bd b0ee 90bd 607f 6e3b 00bc b6bb
00000220: ee38 53bd b536 0ebd c00d 823a 28b8 2a3c
00000230: 8a0e 9b3d 9691 083d 4889 c93c e039 b2bc
00000240: 44c7 62bd 98c0 56bc a067 063c 205d 8e3c
00000250: b468 013d 1885 95bc 2212 76bd d840 ab3c
00000260: 678d 0cbd 88e7 87bd ccc4 28bd d638 4bbd
00000270: 00ba 353a 00db 503d 3a8f aebc ac9a 8b3c
00000280: 4cb4 5abd 5888 593c e366 8fbd 38f0 ee3c
00000290: 660a a7bc bc1f e53c ead1 843d 8e85 093d
000002a0: 1449 9abd f017 0dbc 9b42 1abd c039 bfba
000002b0: 8441 543d d8e9 b0bc cead 68bd e047 6d3c
000002c0: 3a79 50bd e62f 9cbd 1242 0f3d c053 5cbc
000002d0: 95a0 46bd 2e5a 7fbd e06e 2a3d 304d 003d
000002e0: 401a 4fbb 4626 2dbd 1442 d03c 3ef0 78bd
000002f0: 14a4 953d 6591 9bbd 7513 92bd d24f 50bd
00000300: 7a0f 02bd 86c3 203d 949a 353d d823 3b3c
00000310: db22 88bd 3c9a 6dbd 200d af3c ecbc 83bc
00000320: 62cc 873d 4a82 38bd 80da c23b 6620 bcbc
00000330: 24d5 8e3c 402a 843c 508d d7bb 1072 5a3d
00000340: 0eae 96bd fa9e 153d 77e1 3ebd 83c3 1bbd
00000350: 20bd 9a3d 24c3 eebc 8490 a83c ea7e 963d
00000360: 9044 393d 8c8e 93bd 3ec2 203d 405d 80bd
00000370: 884c 073c 7a5e 86bd dceb 8d3d a7d9 9fbd
00000380: 6c9d 95bc e2e6 b3bc ce02 42bd 755d a3bd
00000390: 3aa8 8bbd 1880 96bd 383d ccbc d0d6 463d
000003a0: 1af2 62bd 511e 9cbd 7aed 843d 9e05 143d
000003b0: e1e2 64bd 8c3d 9b3d 6c72 453d a042 633b
000003c0: f0d5 983d 30b9 f33c 6887 333d 305e 583d
000003d0: 74f6 a1bc d22f 9fbd 7c8b 983d 8e68 ccbc
000003e0: 40a6 613c f400 b03c 37c2 8ebd 66f7 d6bc
000003f0: fc7d 5f3d 3eb6 0a3d 804b ae3a 181f a43c

lstm.bias_ih_l0 f4 [600]
0.032774888 -0.017550744 0.07680926 0.0022349833 -0.02439243 -0.051775873 0.00791429 -0.05523303
-0.042065114 -0.028926075 -0.0024725 0.0281812 0.06773618 -0.07000195 0.0005577006 0.030992545
-0.07010581 0.00023598774 -0.06144249 -0.05069409 0.022138067 0.060872376 -0.059646044 0.027939899
-0.014090323 0.0038095128 -0.020789504 0.0019458397 -0.045980692 0.008303217 -0.07350522 -0.041952975
0.07432674 -0.032349315 0.044644743 -0.08088653 0.06612112 -0.0044917967 0.06695734 0.013544943
-0.038089477 -0.017109163 -0.030671265 -0.015058465 0.051434323 0.07756196 -0.018821985 -0.033196654
-0.024354165 0.04783766 -0.0010980997 0.060092434 -0.03335317 0.07360718 -0.0800665 0.010172702
0.05740148 -0.011386934 -0.04901431 0.05348955 -0.060279384 0.029130124 0.06811768 -0.028507011
0.044022575 0.027405173 0.043643374 -0.05760751 0.008992701 -0.052736867 0.002560493 -0.012664907
-0.014422429 -0.039932653 0.028220892 0.034743227 -0.015749454 -0.078354985 0.052944325 -0.0612865
-0.018536404 0.004467653 -0.056432366 -0.073517576 0.065532014 -0.060839787 0.04754826 -0.02478997
-0.04764338 -0.00025879376 0.0605352 0.006197283 0.03332664 0.03280922 -0.018701978 0.013203748
0.056317657 0.03297525 0.023161374 -0.036298797 0.007594367 -0.06442888 0.0043845247 0.06503633
-0.01415049 -0.046658304 0.038789563 -0.07543596 0.07338922 -0.055252273 -0.036905095 -0.043860137
-0.022223622 -0.0032328812 0.060372643 0.027897373 -0.049873285 -0.028317027 0.07508251 -0.0065399953
-0.04015617 -0.051490862 -0.026124272 0.0060291886 0.06652506 0.0007519871 0.0005370273 0.000650804
0.06510596 -0.045590326 0.036611307 -0.04914916 0.06831546 0.019269899 -0.015973136 -0.005282593
-0.00038925651 0.07897586 0.035729915 0.05442509 -0.055145953 0.07377656 -0.08118148 0.064322114
0.07203506 0.0030269236 -0.029371869 -0.017633803 0.036158253 -0.029823165 -0.046924565 -0.037115656
-0.06666654 0.011248857 0.058707684 0.07871446 -0.066327 -0.0045756474 -0.0577658 -0.01738716
-0.045683023 0.01636377 -0.036411446 0.060292825 0.077026725 0.0031685606 0.04093653 -0.08039665
-0.06766353 -0.015297487 0.07401925 0.026487127 0.0773561 0.022405632 -0.062248275 0.01860892
-0.02576404 -0.077144444 0.015134722 -0.018541127 0.06359711 0.024498187 -0.048298337 -0.054308057
0.07616204 0.0566687 0.042503595 0.043131463 -0.048135694 0.010469668 -0.029664282 -0.06990509
0.014044322 0.045260668 -0.06740162 0.07896739 -0.059739217 -0.040702578 -0.05624923 0.07413983
0.067205995 -0.029076278 -0.013323434 0.050307065 0.044599116 0.049967602 -0.059328683 0.04986693
-0.036605265 -0.05489718 -0.065515295 0.07776444 0.025108047 -0.041761 -0.059055924 -0.034633223
0.0058096424 -0.020265773 -0.07988409 0.069547966 0.039392687 0.061029762 -0.057943337 -0.04739659
0.06672841 -0.07599546 0.033273026 -0.015371107 0.06920487 -0.015483789 -0.007722251 0.079787135
-0.012289785 -0.025949143 0.03560654 -0.040237762 -0.0058898255 0.05347216 0.05876583 0.04806082
0.05276689 -0.07437839 0.013740875 0.058981255 -0.068359725 -0.026388098 0.04208651 -0.0068688914
0.081624 -0.017471984 0.03537596 -0.05156327 0.050758302 -0.011813745 0.066329286 -0.025190786
00000000: f63e 063d 94c6 8fbc 2c4e 9d3d cc78 123b
00000010: a2d2 c7bc f012 54bd f0aa 013c 083c 62bd
00000020: 784c 2cbd 60f6 ecbc ab09 22bb 43dc e63c
00000030: 44b9 8a3d 2f5d 8fbd a732 123a 14e4 fd3c
00000040: a393 8fbd 7a73 7739 1fab 7bbd 9ba4 4fbd
00000050: e45a b53c 5055 793d 694f 74bd 37e2 e43c
00000060: 19db 66bc 05a9 793b c04e aabc 8c0b ff3a
00000070: 4056 3cbd 370a 083c e889 96bd e2d6 2bbd
00000080: 9e38 983d b780 04bd 68dd 363d d6a7 a5bd
00000090: 826a 873d ec2f 93bb ee20 893d 9ceb 5d3c
000000a0: b603 1cbd 8428 8cbc 4e42 fbbc c8b7 76bc
000000b0: ccac 523d ced8 9e3d 9030 9abc 37f9 07bd
000000c0: 6382 c7bc 6cf1 433d 1dee 8fba 7c23 763d
000000d0: 559d 08bd 5cbf 963d e8f9 a3bd 68ab 263c
000000e0: d01d 6b3d 4390 3abc 3bc3 48bd dc17 5b3d
000000f0: 84e7 76bd 4ca2 ee3c 4881 8b3d 8987 e9bc
00000100: 0451 343d d080 e03c 65c3 323d daf5 6bbd
00000110: 1f56 133c 9d02 58bd f2cd 273b 7880 4fbc
00000120: 0d4c 6cbc 6c90 23bd 802f e73c ea4e 0e3d
00000130: 0005 81bc 9478 a0bd 26dc 583d 8e07 7bbd
00000140: a8d9 97bc 6465 923b a025 67bd 6290 96bd
00000150: a635 863d 2433 79bd f7c1 423d 5614 cbbc
00000160: b425 43bd b6ae 87b9 c2f3 773d 9412 cb3b
00000170: 8481 083d f662 063d e434 99bc 8854 583c
00000180: 58ad 663d 0e11 073d ecbc bd3c 0cae 14bd
00000190: 2bda f83b 4af3 83bd 0fac 8f3b c431 853d
000001a0: 75d7 67bc c71c 3fbd cee1 1e3d 2b7e 9abd
000001b0: 164d 963d 3550 62bd cc29 17bd b0a6 33bd
000001c0: 500e b6bc bfde 53bb 4e49 773d 0889 e43c
000001d0: ee47 4cbd 1cf9 e7bc dcc4 993d 754d d6bb
000001e0: cc7a 24bd 15e8 52bd 9202 d6bc 8090 c53b
000001f0: 4a3e 883d 0021 453a 4bc7 0c3a b89a 2a3a
00000200: 4656 853d ecbc 3abd bdf5 153d a150 49bd
00000210: fae8 8b3d e8db 9d3c 18da 82bc 9a19 adbb
00000220: 2015 ccb9 18be a13d 8859 123d d8ec 5e3d
00000230: b9e0 61bd 2a18 973d 7a42 a6bd 50bb 833d
00000240: 1e87 933d 5a5f 463b 469d f0bc c474 90bc
00000250: ad1a 143d b64f f4bc f933 40bd 9606 18bd
00000260: 7888 88bd 204d 383c 7877 703d 0c35 a13d
00000270: 73d6 87bd 50ef 95bb d59b 6cbd 846f 8ebc
00000280: 1f1e 3bbd 500d 863c 2b24 15bd 9cf5 763d
00000290: 30c0 9d3d a0a7 4f3b 10ad 273d 00a7 a4bd
000002a0: 2d93 8abd 50a2 7abc 6897 973d 88fb d83c
000002b0: e06c 9e3d 048c b73c 0cf8 7ebd bc71 983c
000002c0: 1c0f d3bc e8fd 9dbd a0f7 773c 90e3 97bc
000002d0: 343f 823d 6cb0 c83c 7ad4 45bd 2072 5ebd
000002e0: d8fa 9b3d 701d 683d 4018 2e3d 9eaa 303d
000002f0: ef29 45bd f888 2b3c 8202 f3bc 662a 8fbd
00000300: 281a 663c 4063 393d dc09 8abd a8b9 a13d
00000310: 1cb1 74bd bfb7 26bd 9865 66bd a0d6 973d
00000320: 4ca3 893d 6031 eebc 884a 5abc c80e 4e3d
00000330: 90ad 363d d4aa 4c3d a202 73bd 4441 4c3d
00000340: 67ef 15bd dedb 60bd e22c 86bd f642 9f3d
00000350: 64af cd3c 950d 2bbd a0e4 71bd 91db 0dbd
00000360: d05e be3b 6804 a6bc 459a a3bd 2a6f 8e3d
00000370: 3a5a 213d 58fa 793d fe55 6dbd ed22 42bd
00000380: e8a8 883d 82a3 9bbd 4c49 083d 18d7 7bbc
00000390: 48bb 8d3d b8af 7dbc f00a fdbb 7067 a33d
000003a0: 185b 49bc 4c93 d4bc 2ad8 113d 5ad0 24bd
000003b0: 70ff c0bb a005 5b3d 70b4 703d 6cdb 443d
000003c0: 1822 583d b353 98bd 6821 613c 5496 713d
000003d0: 2f00 8cbd da2b d8bc e862 2c3d 7014 e1bb
000003e0: 7c2a a73d 6821 8fbc 62e6 103d 0234 53bd
000003f0: f0e7 4f3d 708e 41bc a6d7 873d e85c cebc

lstm.bias_hh_l0 f4 [600]
0.06747709 -0.0036339466 -0.012917794 -0.024938762 -0.03931567 0.05434217 -0.02019636 0.042640477
0.024797559 0.06459412 0.023554817 -0.076868676 0.06980258 0.0522632 0.016171701 0.030758798
-0.0375845 -0.008708596 0.08127013 -0.034420297 0.06436041 0.06253797 -0.046624694 -0.061538234
-0.03854904 -0.03059689 0.0037480278 0.0752359 -0.053433917 -0.0292819 0.046394948 0.016885065
0.032083318 0.013875574 0.054350138 -0.054536216 -0.0066637825 0.0433909 -0.050817378 0.05836732
0.0013295839 -0.0050853663 0.015950702 -0.02369977 0.05603011 0.002266025 -0.038172685 -0.029041488
-0.03650666 -0.061333798 -0.018688805 0.040817417 0.044524908 0.06992233 0.01968915 -0.01583264
-0.027263075 -0.064208835 0.004140118 0.080078185 0.06002274 -0.061336122 0.020029806 0.012987897
-0.017439378 0.02348259 -0.035101537 -0.07714036 0.049044173 -0.011482276 -0.041621152 0.057174888
-0.019160515 0.009827269 0.005006519 -0.0639599 -0.07910903 -0.041611917 -0.070394866 -0.025944624
0.060529903 0.06368804 0.026828058 0.06908347 -0.037913654 0.068485305 0.0077677197 0.008870571
-0.07514353 0.010622987 0.040532395 -0.06670246 0.054862052 -0.0687538 0.005677643 -0.0645385
0.05097787 0.037978895 -0.0774983 0.011694975 0.06392065 -0.052617285 0.010448813 0.058248382
0.023262411 0.0012856792 -0.07497678 0.0036869864 -0.05702485 0.018649846 0.041758273 -0.000880821
0.0063368278 0.07804458 0.053305916 0.04585749 -0.050756812 -0.030108303 -0.07709441 0.07270765
0.015843987 -0.06315275 0.04577359 0.0017016752 0.046521056 0.076212555 -0.04844694 -0.040798165
-0.06010247 -0.046641134 0.02653294 -0.02805744 0.042264104 -0.08096623 0.0408719 0.0796776
-0.0026220467 -0.07194936 -0.016209006 -0.0726861 0.01124722 0.072208464 -0.03481084 0.040507577
0.051167548 -0.06724356 0.009947203 -0.040728863 0.038266454 -0.041750472 0.049580872 0.07125947
0.045277655 0.033264063 -0.06849076 -0.050853666 0.022946537 0.0756107 0.010351792 0.080007955
0.03820581 -0.046341974 -0.002779998 0.07472183 -0.06487286 -0.019575946 0.0776615 0.07293396
0.047965303 -0.007548757 -0.050738454 -0.035936836 -0.036565166 -0.015748307 0.016761981 -0.014783591
0.060968965 -0.059301253 0.040608346 -0.07425929 -0.03629958 0.00794331 -0.07086325 -0.05224148
0.04063371 0.060223058 -0.07406232 -0.059619613 0.005880937 0.07229024 0.041101053 0.032687113
0.030623034 -0.03774375 -0.0074554905 0.02063264 0.06294575 -0.054613553 0.015769303 0.01337263
0.05047071 -0.0006764978 -0.0046480447 -0.02312012 0.0685249 -0.019579053 -0.027171645 -0.02052826
-0.022295848 -0.01923732 -0.008398093 0.026014693 -0.02998745 0.08148751 0.0375088 -0.07931126
0.06481463 -0.08079165 0.002233617 0.06181082 -0.033720374 0.03933598 -0.039336663 -0.048127428
0.006280765 -0.028488457 -0.00387422 -0.025252093 0.066005215 -0.029174596 0.08021106 0.030292518
0.029023483 -0.059556685 0.021208532 0.062098294 0.062022656 -0.01868017 -0.034477692 -0.022210166
-0.058695056 -0.07882218 -0.015650697 0.018863618 0.022373684 -0.02115038 -0.015612625 -0.007563032
0.04867968 0.019539326 0.054889187 0.025729135 0.004066974 -0.011409752 0.02003736 0.026046067
00000000: 6e31 8a3d 8227 6ebb 28a5 53bc 604c ccbc
00000010: 7809 21bd e595 5e3d d672 a5bc c8a7 2e3d
00000020: 4024 cb3c ec49 843d 08f6 c03c 536d 9dbd
00000030: a8f4 8e3d f011 563d 847a 843c e0f9 fb3c
00000040: 34f2 19bd 80ae 0ebc f470 a63d 4cfc 0cbd
00000050: 64cf 833d e813 803d 89f9 3ebd 840f 7cbd
00000060: 99e5 1dbd 54a6 fabc 79a1 753b 4815 9a3d
00000070: 86dd 5abd 98e0 efbc a108 3e3d 8c52 8a3c
00000080: cc69 033d 6056 633c 409e 5e3d 5e61 5fbd
00000090: dc5b dabb a8ba 313d e225 50bd 9212 6f3d
000000a0: 6f45 ae3a 25a3 a6bb 0cab 823c 0526 c2bc
000000b0: d47f 653d 9781 143b f65a 1cbd 6ae8 edbc
000000c0: 0288 15bd 2639 7bbd 4419 99bc 2a30 273d
000000d0: c05f 363d 7033 8f3d 244b a13c 74b3 81bc
000000e0: d056 dfbc ec7f 83bd d4a9 873b 0800 a43d
000000f0: 68da 753d 963b 7bbd 8c15 a43c 30cb 543c
00000100: 07dd 8ebc 905e c03c a1c6 0fbd c4fb 9dbd
00000110: 8be2 483d 2820 3cbc f17a 2abd 3730 6a3d
00000120: 83f6 9cbc 8e02 213c ba0d a43b 68fd 82bd
00000130: ea03 a2bd 4271 2abd 2f2b 90bd d289 d4bc
00000140: 34ee 773d e06e 823d 84c6 db3c a27b 8d3d
00000150: 594b 1bbd 0642 8c3d 5b88 fe3b df55 113c
00000160: dae4 99bd 090c 2e3c 4c05 263d 4d9b 88bd
00000170: 08b7 603d cbce 8cbd 860b ba3b c32c 84bd
00000180: 2cce 503d c28f 1b3d 6eb7 9ebd 489c 3f3c
00000190: d4e8 823d 3985 57bd 8031 2b3c db95 6e3d
000001a0: d090 be3c 3c84 a83a 6d8d 99bd 5ea1 713b
000001b0: e492 69bd 90c7 983c b90a 2b3d e6e6 66ba
000001c0: 2aa5 cf3b d6d5 9f3d 4e57 5a3d 10d5 3b3d
000001d0: 60e6 4fbd b0a5 f6bc ade3 9dbd c0e7 943d
000001e0: 40cb 813c 3b56 81bd 177d 3b3d bf0a df3a
000001f0: dd8c 3e3d 5415 9c3d 4c70 46bd fa1b 27bd
00000200: 022e 76bd c60a 3fbd 9c5b d93c b7d8 e5bc
00000210: 201d 2d3d 9fd1 a5bd 4b69 273d 022e a33d
00000220: a5d6 2bbb 305a 93bd c0c8 84bc 73dc 94bd
00000230: 4346 383c 08e2 933d d095 0ebd 46eb 253d
00000240: 1095 513d feb6 89bd 98f9 223c 4fd3 26bd
00000250: 49bd 1c3d 8b02 2bbd 5015 4b3d 7cf0 913d
00000260: 1075 393d e63f 083d e244 8cbd ef4b 50bd
00000270: 60fa bb3c c8d9 9a3d 909a 293c 36db a33d
00000280: b27d 1c3d 15d1 3dbd a030 36bb c207 993d
00000290: 10dc 84bd bc5d a0bc fe0c 9f3d 665e 953d
000002a0: 4477 443d 905b f7bb 20d3 4fbd 8132 13bd
000002b0: 5bc5 15bd 9802 81bc 6c50 893c e036 72bc
000002c0: 98ba 793d dfe5 72bd f054 263d 4115 98bd
000002d0: deae 14bd a824 023c c020 91bd 2afb 55bd
000002e0: 886f 263d 74ac 763d fcad 97bd b233 74bd
000002f0: e0b4 c03b e80c 943d 9459 283d ece2 053d
00000300: 28dd fa3c 3199 1abd 304d f4bb c805 a93c
00000310: b4e9 803d 76b2 5fbd a02e 813c e018 5b3c
00000320: 60ba 4e3d 0057 31ba a04e 98bb 6866 bdbc
00000330: c856 8c3d 4064 a0bc 1297 debc e22a a8bc
00000340: c8a5 b6bc 9697 9dbc 2898 09bc c41c d53c
00000350: 3ea8 f5bc ece2 a63d d4a2 193d f16d a2bd
00000360: 88bd 843d 1876 a5bd e061 123b 582d 7d3d
00000370: 601e 0abd c41e 213d 7b1f 21bd 4421 45bd
00000380: e0ce cd3b a060 e9bc a0e6 7dbb 7add cebc
00000390: be2d 873d 90ff eebc b245 a43d 0428 f83c
000003a0: a8c2 ed3c b6f1 73bd 84bd ad3c c85a 7e3d
000003b0: 780b 7e3d 2807 99bc 7b38 0dbd 18f2 b5bc
000003c0: 3a6a 70bd 866d a1bd e435 80bc e087 9a3c
000003d0: 0449 b73c 9043 adbc 18cc 7fbc 50d3 f7bb
000003e0: 5864 473d f010 a03c 7cd3 603d e8c5 d23c
000003f0: 4044 853b f8ef 3abc 6425 a43c 905e d53c

fc.weight f4 [1, 150]
0.020479262 0.05175194 -0.020269796 0.07436444 -0.05251059 0.039142136 0.007766603 0.033041775
0.0074198926 -0.055710346 -0.03035599 0.07086459 0.031713955 -0.05596462 0.029799936 0.02708146
-0.0065782834 0.07705815 -0.011885755 0.05493067 0.02241271 -0.04466362 -0.039122943 0.0655791
0.0068216887 0.06527206 -0.011552751 -0.030257449 0.056525677 -0.013867356 0.04180955 -0.05846807
-0.07064442 0.014370203 0.06472409 -0.054402865 0.051639587 0.026118355 0.020871595 -0.002749282
-0.010522544 0.07433918 -0.06812688 0.0014397862 0.027751716 -0.032400604 -0.007894255 0.005924294
-0.06572706 0.0459861 0.055804983 -0.07403266 -0.07545825 0.034442272 0.066162676 -0.06522215
0.045538023 -0.0018610567 0.043036185 0.030571833 -0.06997211 0.06442842 -0.054078393 0.0017382855
0.03861373 0.08136904 0.00875078 0.06878103 -0.011623335 -0.08126506 -0.039421454 -0.07955971
0.03639737 0.017775975 0.045558885 -0.08121656 -0.025453579 0.009761705 -0.0048767445 0.07420069
-0.04015509 -0.032404397 0.013095234 0.043833986 0.057463452 -0.0638157 0.0112668425 0.007319019
-0.07767776 0.01254932 0.003048587 0.033870168 -0.022162035 -0.047758985 -0.068406716 -0.024347026
-0.056284003 0.00871543 0.007695483 0.075908095 0.028926194 -0.019907244 0.039877836 0.01967854
0.048498467 0.07731429 -0.062993154 -0.07338729 -0.0012400654 -0.023589253 0.032390412 0.07394907
-0.054858312 0.016168505 0.028390683 -0.055451788 0.024573497 -0.02611592 0.0470396 0.055905774
-0.02173378 0.009577466 -0.03357328 0.008530435 0.013164811 0.025159486 -0.039817546 0.067618296
-0.06674026 -0.067985475 0.07227786 -0.0020995867 0.034205034 -0.032169614 0.07151702 0.009404212
-0.035774935 -0.044042632 0.06642605 0.07589288 -0.044812754 0.06163089 0.048950016 -0.06995285
-0.020955127 -0.037316676 0.061210692 -0.080020234 0.012349807 -0.0027533087
00000000: 20c4 a73c d8f9 533d d80c a6bc 624c 983d
00000010: 5815 57bd 8153 203d fd7e fe3b d056 073d
00000020: 9222 f33b 8830 64bd 20ad f8bc 7421 913d
00000030: 7ee6 013d 283b 65bd ff1e f43c f0d9 dd3c
00000040: a48e d7bb aad0 9d3d 78bc 42bc fbfe 603d
00000050: dc9a b73c 33f1 36bd 613f 20bd 564e 863d
00000060: 7988 df3b 5cad 853d c047 3dbc 78de f7bc
00000070: 7887 673d e833 63bc 7e40 2b3d 377c 6fbd
00000080: 06ae 90bd 0071 6b3c 108e 843d 8ad5 5ebd
00000090: 0884 533d 29f6 d53c e8fa aa3c 4c2d 34bb
000000a0: c066 2cbc 243f 983d 1b86 8bbd 35b7 bc3a
000000b0: 9157 e33c 7fb6 04bd e856 01bc 9420 c23b
000000c0: e99b 86bd ec5b 3c3d c493 643d 6f9e 97bd
000000d0: db89 9abd 5713 0d3d 4c80 873d 3193 85bd
000000e0: 1486 3a3d b3ee f3ba b646 303d c871 fa3c
000000f0: 8a4d 8fbd 0cf3 833d 4e81 5dbd 2fd7 e33a
00000100: 6e29 1e3d d0a4 a63d 6e5f 0f3c 12dd 8c3d
00000110: cd6f 3ebc 4c6e a6bd 6478 21bd 34f0 a2bd
00000120: 6915 153d ec9e 913c f49b 3a3d de54 a6bd
00000130: 0684 d0bc 8fef 1f3c 19cd 9fbb 88f6 973d
00000140: aa79 24bd 79ba 04bd 648d 563c 448b 333d
00000150: cc5e 6b3d ceb1 82bd 9098 383c 62d4 ef3b
00000160: 8415 9fbd aa9b 4d3c cdca 473b 72bb 0a3d
00000170: 288d b5bc ed9e 43bd d218 8cbd 6a73 c7bc
00000180: 0e8a 66bd 2acb 0e3c 642a fc3b b475 9b3d
00000190: a0f6 ec3c 8414 a3bc f156 233d e434 a13c
000001a0: 54a6 463d f456 9e3d 8e02 81bd 134c 96bd
000001b0: b189 a2ba 403e c1bc cfab 043d 9c72 973d
000001c0: 1cb3 60bd d073 843c 9493 e83c 6a21 63bd
000001d0: 5c4e c93c 0ef1 d5bc 98ac 403d 74fd 643d
000001e0: 0a0b b2bc ceea 1c3c 2384 09bd 3dc3 0b3c
000001f0: 38b1 573c 441b ce3c b917 23bd 767b 8a3d
00000200: 1eaf 88bd f83b 8bbd 6a06 943d 3899 09bb
00000210: 941a 0c3d 49c4 03bd 8477 923d 2014 1a3c
00000220: bd88 12bd 0c66 34bd 620a 883d ba6d 9b3d
00000230: 948d 37bd ac70 7c3d d07f 483d 7143 8fbd
00000240: 16aa abbc 5fd9 18bd 10b8 7a3d a6e1 a3bd
00000250: d856 4a3c db70 34bb
