Models/5_price_predictor_15_hidden_20.pth (torch, 13783 bytes, 5 tensors)

lstm.weight_ih_l0 f4 [80, 15]
-0.10140567 -0.17462556 0.02751095 0.049648214 -0.121596605 -0.107788555 0.09383931 -0.10563539
-0.05795032 -0.17621747 0.034202192 -0.06040829 0.20147489 0.20047718 0.13753551 0.054089945
0.1940341 0.21354997 -0.00027655045 -0.18472205 -0.00441237 -0.02579902 0.22277841 0.12337334
-0.094485715 0.034179967 -0.017188044 0.21727365 -0.18373306 0.19258201 -0.13741943 -0.17028262
-0.056687813 0.16288543 0.18832746 0.039013658 -0.08114712 0.045027796 -0.02760356 0.0059097465
-0.20105408 -0.008168848 -0.11124487 0.059238646 -0.2220625 0.12186962 -0.042244747 0.17792207
-0.037256 0.16305536 0.014522584 0.09716162 -0.04034979 0.08655414 -0.08688602 -0.19980796
0.12305716 0.15541297 -0.004729061 -0.1584283 0.17500491 -0.028947577 0.009955136 0.039286096
0.19728823 -0.14728154 -0.10573383 0.11775741 0.022613699 0.061778627 0.14406751 -0.20066382
0.13512085 -0.11734499 0.17650047 -0.03683737 -0.18612853 0.052567422 -0.09888056 -0.1378534
-0.12590866 -0.14566225 -0.1270941 -0.0701967 -0.13306162 -0.011448675 -0.19770597 -0.16539007
-0.13195227 0.16432616 0.11792484 -0.07543419 -0.102705814 -0.079464704 -0.11935465 -0.16589722
-0.1550362 -0.051753882 0.050915834 -0.09405218 -0.0106304595 -0.0005175489 -0.15540108 -0.095038
-0.069206566 0.14223698 0.16481775 0.062829934 0.040042136 -0.12807025 -0.16071 0.19553134
-0.04702764 0.10820454 -0.074120745 -0.16239962 0.035705287 0.06904662 0.0208228 -0.071436
0.20241973 -0.09710918 -0.047208853 -0.011757421 -0.1454472 0.20290655 -0.0052562766 -0.11949557
0.056086715 -0.041568343 0.068116605 -0.090279356 -0.119560346 0.04896608 -0.046159104 0.071876526
-0.13547833 0.1582705 -0.08437404 0.018253293 -0.035411812 -0.12478818 -0.093299694 -0.19157296
-0.16059403 0.17018583 0.03099384 -0.18808761 -0.1722431 -0.026927078 0.002034171 0.17379007
-0.08266933 0.140091 -0.18270725 -0.15884745 -0.056963798 0.07756269 0.09819445 0.07906616
0.111732274 0.04494549 -0.028983042 -0.049886405 0.0775646 -0.11342928 -0.077930115 0.0629093
-0.0917441 -0.05433032 -0.103829645 0.06618387 -0.16515031 0.111161016 0.10151132 0.0370575
0.030658232 0.091869235 -0.15845086 0.09606161 0.11392554 0.07125526 0.16646819 0.030693248
-0.21463695 -0.21041699 -0.1475216 0.08578875 0.17417063 -0.13045688 0.21229999 0.11378791
0.099802546 0.22269215 -0.19180958 -0.21600811 0.08260017 -0.013520512 -0.04449303 0.021474626
-0.1372516 0.17294121 0.11173456 -0.031803247 0.09870624 0.105086885 -0.080562405 -0.0053630243
0.12775204 -0.123890065 0.2069346 -0.1795699 -0.20604153 0.025543261 -0.16641986 0.19411439
-0.15537852 -0.002956974 0.10812343 -0.14890277 -0.0976638 -0.04695128 0.18584079 0.1630331
0.21334186 -0.21185587 0.16377574 -0.12662643 -0.06049049 -0.19809711 0.0875192 0.15414557
-0.22177865 0.17771393 -0.062645346 -0.05160211 -0.12455835 -0.08669032 0.111619174 -0.14878653
-0.069657795 0.10976179 0.047798842 -0.038386717 0.22254412 0.1989542 -0.13455386 -0.11027853
0.16998908 -0.14337257 -0.16863695 0.20311627 0.20460567 0.17267057 -0.08066034 -0.08312641
00000000: c7ad cfbd 0bd1 32be a55e e13c ed5b 4b3d
00000010: a407 f9bd 3fc0 dcbd d32e c03d 5e57 d8bd
00000020: 515d 6dbd 5a72 34be 9917 0c3d af6e 77bd
00000030: 6f4f 4e3e e449 4d3e 1cd6 0c3e 6b8d 5d3d
00000040: e0b0 463e d8ac 5a3e f9fd 90b9 c727 3dbe
00000050: a495 90bb 7758 d3bc 0620 643e 29ab fc3d
00000060: ba81 c1bd 4b00 0c3d f1cd 8cbc fc7c 5e3e
00000070: 8524 3cbe 3834 453e aeb7 0cbe 915e 2ebe
00000080: 7b31 68bd 70cb 263e ead8 403e c9cc 1f3d
00000090: 7630 a6bd 116f 383d dc20 e2bc 8ca6 c13b
000000a0: 1fe1 4dbe a2d6 05bc 5ad4 e3bd 39a4 723d
000000b0: 5a64 63be c896 f93d d408 2dbd 3431 363e
000000c0: bf99 18bd fcf7 263e 22f0 6d3c acfc c63d
000000d0: d245 25bd 4c43 b13d 4cf1 b1bd 759a 4cbe
000000e0: 6405 fc3d 9424 1f3e 3df6 9abb 073b 22be
000000f0: 7d34 333e 7823 edbc de1a 233c 75ea 203d
00000100: ed05 4a3e f9d0 16be fa8a d8bd cc2a f13d
00000110: 5d40 b93c 960b 7d3d 6f86 133e d17a 4dbe
00000120: 1f5d 0a3e 9252 f0bd 8abc 343e c8e2 16bd
00000130: 7a98 3ebe f050 573d e481 cabd 7129 0dbe
00000140: 33ee 00be 7c28 15be f524 02be 4ac3 8fbd
00000150: 4e41 08be 3993 3bbc 6f73 4abe 045c 29be
00000160: 7f1e 07be 1e45 283e 9482 f13d 3e7d 9abd
00000170: 6d57 d2bd 64be a2bd 3670 f4bd f6e0 29be
00000180: cfc1 1ebe e1fb 53bd 1f8d 503d 6e9e c0bd
00000190: 612b 2ebc 1eac 07ba 7621 1fbe 48a3 c2bd
000001a0: 2cbc 8dbd 92a6 113e fcc5 283e fbac 803d
000001b0: 3903 243d d924 03be 2a91 24be 5e39 483e
000001c0: 0ea0 40bd 589a dd3d 9ecc 97bd 164c 26be
000001d0: b53f 123d 5068 8d3d 9494 aa3c 0a4d 92bd
000001e0: 1e47 4f3e 2ee1 c6bd 125e 41bd 33a2 40bc
000001f0: 1cf0 14be bcc6 4f3e d83c acbb 18ba f4bd
00000200: 2fbb 653d 9143 2abd b880 8b3d 62e4 b8bd
00000210: 0edc f4bd a890 483d 5411 3dbd 0034 933d
00000220: d5ba 0abe a911 223e 4ccc acbd ee87 953c
00000230: fa0b 11bd f290 ffbd e913 bfbd b42b 44be
00000240: c372 24be 3245 2e3e cbe6 fd3c 0a9a 40be
00000250: 7f60 30be 2d96 dcbc ba4f 053b 06f6 313e
00000260: 8a4e a9bd 0474 0f3e 9c17 3bbe e8a8 22be
00000270: df52 69bd 30d9 9e3d 2c1a c93d 70ed a13d
00000280: e4d3 e43d c318 383d d86d edbc b055 4cbd
00000290: 30da 9e3d 9c4d e8bd d399 9fbd 97d6 803d
000002a0: 55e4 bbbd 7889 5ebd a3a4 d4bd 698b 873d
000002b0: 2a1d 29be 63a8 e33d 2be5 cf3d 9bc9 173d
000002c0: f926 fb3c f025 bc3d f140 22be f3bb c43d
000002d0: cb51 e93d 47ee 913d a376 2a3e 6870 fb3c
000002e0: cac9 5bbe 8d77 57be e70f 17be 03b2 af3d
000002f0: c959 323e 7d96 05be 2b65 593e a309 e93d
00000300: 4765 cc3d 6909 643e bb69 44be 3b31 5dbe
00000310: 472a a93d 2385 5dbc 533e 36bd 8eeb af3c
00000320: af8b 0cbe 8017 313e 17d5 e43d 1f44 02bd
00000330: 7f26 ca3d cb37 d73d e7fd a4bd 4fbc afbb
00000340: 6ed1 023e 13ba fdbd aae6 533e 2ce1 37be
00000350: 8dfc 52be 1a40 d13c f869 2abe ecc5 463e
00000360: 8c1b 1fbe cbc9 41bb d16f dd3d f879 18be
00000370: f503 c8bd fc4f 40bd 0c4d 3e3e 26f2 263e
00000380: 4a76 5a3e bff0 58be d4b4 273e 5caa 01be
00000390: e0c4 77bd f8d9 4abe 443d b33d 56d8 1d3e
000003a0: f119 63be a4fa 353e 344c 80bd bc5c 53bd
000003b0: 7318 ffbd b28a b1bd 9898 e43d 7f5b 18be
000003c0: bfa8 8ebd caca e03d b8c8 433d 643b 1dbd
000003d0: 9be2 633e a6ba 4b3e 7dc8 09be b6d9 e1bd
000003e0: 9e11 2e3e 42d0 12be 2aaf 2cbe b6fd 4f3e
000003f0: 2684 513e 8ed0 303e 4031 a5bd 2e3e aabd

lstm.weight_hh_l0 f4 [80, 20]
-0.10087502 0.19862491 0.023146078 -0.08557357 0.017641053 -0.15506926 -0.2191458 0.016657174
-0.12629521 -0.005887434 -0.14225173 0.068481505 0.023864195 0.18447644 0.13273716 0.09708062
-0.10310376 0.02419819 -0.05521299 -0.20852165 0.15867177 -0.18992515 -0.060585156 0.1818991
-0.14042804 0.056854486 -0.10034464 -0.20400724 -0.003981933 -0.13958216 -0.12178405 -0.053378925
0.106901824 0.014618665 0.03552848 0.11275476 -0.1886794 0.17826319 -0.016747788 -0.04377359
0.06699145 0.11380288 -0.041162446 0.19302338 0.13592625 -0.03120251 0.20626888 0.01743105
0.1427379 -0.031342745 -0.22188914 0.2214742 0.021704659 -0.2001679 0.12918228 0.1431379
0.03029126 -0.04031822 -0.13407329 -0.17584153 0.038349062 0.073313266 -0.18591629 -0.15505391
-0.20334607 -0.037678912 -0.12101998 0.15072817 0.1087617 -0.024669021 -0.022024423 -0.08335677
-0.20934425 -0.05118774 0.03155929 -0.023464665 -0.077160046 0.039797753 -0.03353317 -0.07322827
0.16706625 0.18752885 0.029361218 -0.19909158 -0.19846784 -0.1187768 -0.12869643 -0.12796882
-0.18166815 -0.19501767 0.005104333 0.11900586 0.05717933 0.07386342 -0.21068431 0.074703634
0.11115 0.05435413 0.19042525 0.060727328 0.0041933954 0.12527502 0.1791279 0.10512406
-0.14737381 -0.1694818 0.0032783449 0.11922252 -0.007864267 0.20828587 0.12780347 0.22303256
-0.22115734 0.0032172948 0.1688883 -0.10020868 -0.086830825 0.007137835 -0.1693566 0.0021603107
0.17880529 -0.10019223 -0.20111713 -0.18170816 -0.0034838915 0.017610848 -0.15842384 -0.05955869
-0.19566287 0.21864995 0.15313014 -0.02896221 0.21872935 -0.19653325 -0.022901341 -0.17934588
0.1522072 0.080483854 0.093010366 -0.12853524 0.17427441 -0.06273377 0.016537413 -0.07147603
0.048822284 -0.033450484 0.021354556 -0.07055451 -0.11223845 0.03347823 0.012560174 0.20129222
-0.21354829 -0.17226258 -0.13861899 0.037399173 0.19294074 0.034644186 -0.18209732 0.08355203
0.18069607 0.049017638 0.099713415 0.07316145 0.037177324 0.15270793 -0.12681657 -0.10838826
0.09495187 0.13011721 0.124386996 0.16676295 -0.17603976 -0.07442488 -0.004086226 0.1727679
-0.19306168 0.21659881 0.1028842 0.21339735 0.21645597 0.024789631 0.12856498 -0.124297254
-0.016393468 -0.19355503 -0.11899788 -0.19474493 -0.037491277 0.10496399 0.015756711 -0.22346456
-0.04743871 0.046650738 0.16392142 0.21328422 -0.21835077 -0.14112654 0.049776644 -0.13392228
0.18025437 -0.042021647 -0.10497013 0.02945429 -0.08727917 0.08739975 -0.061668426 -0.1700561
-0.13711429 0.13517258 -0.087813765 -0.050281167 -0.13710618 0.14566451 -0.20662683 -0.1485234
0.0010306537 -0.18838064 0.16066608 -0.19844656 -0.10902326 -0.09470709 -0.123821475 0.19429234
0.036862552 0.22103885 -0.117866784 0.18214902 -0.10821206 -0.15433045 -0.10087521 0.16450071
0.09370017 0.19491327 -0.22197095 0.010041028 0.1324889 0.063830376 0.034817964 0.12603879
0.22101837 0.19930321 0.2094036 -0.03616482 0.12542087 -0.12825762 -0.046906516 -0.04454635
-0.19755563 0.089832455 -0.097516656 0.15006828 -0.13594335 -0.14517416 0.050920337 0.07391465
00000000: 9097 cebd 5464 4b3e d89c bd3c 3241 afbd
00000010: f883 903c 7aca 1ebe c267 60be a074 883c
00000020: 8853 01be 60eb c0bb 70aa 11be 0840 8c3d
00000030: d87e c33c 64e7 3c3e 40ec 073e 34d2 c63d
00000040: 1028 d3bd 483b c63c 0427 62bd b386 55be
00000050: da7a 223e bd7b 42be 2428 78bd c243 3a3e
00000060: 5ecc 0fbe 40e0 683d 7e81 cdbd 46e7 50be
00000070: e07a 82bb a0ee 0ebe ea69 f9bd dca3 5abd
00000080: 58ef da3d 2083 6f3c 5086 113d f8eb e63d
00000090: 2c35 41be a08a 363e a832 89bc f04b 33bd
000000a0: d032 893d 7c11 e93d f499 28bd eca7 453e
000000b0: 4030 0b3e 689c ffbc 2638 533e 90cb 8e3c
000000c0: e229 123e 4061 00bd e836 63be 22ca 623e
000000d0: f8cd b13c d0f8 4cbe 5c48 043e be92 123e
000000e0: 6025 f83c b824 25bd 824a 09be cd0f 34be
000000f0: e813 1d3d 4425 963d d760 3ebe 74c6 1ebe
00000100: f439 50be 3455 1abd 53d9 f7bd 7c58 1a3e
00000110: 74be de3d b016 cabc 906c b4bc f4b6 aabd
00000120: 575e 56be 3caa 51bd 5044 013d f838 c0bc
00000130: 1606 9ebd f802 233d 145a 09bd b4f8 95bd
00000140: 6a13 2b3e 9007 403e f086 f03c aade 4bbe
00000150: 273b 4bbe 4041 f3bd ffc8 03be 420a 03be
00000160: 3707 3abe b6b2 47be 4042 a73b 58b9 f33d
00000170: e034 6a3d b445 973d a1bd 57be 38fe 983d
00000180: 9ca2 e33d 70a2 5e3d d6fe 423e 38bd 783d
00000190: c068 893b 1848 003e 4e6d 373e 484b d73d
000001a0: 29e9 16be a38c 2dbe 80d9 563b f02a f43d
000001b0: 20d9 00bc e448 553e eade 023e a662 643e
000001c0: 1277 62be 40d9 523b 0ef1 2c3e 353a cdbd
000001d0: 5cd4 b1bd 80e4 e93b d16b 2dbe 0094 0d3b
000001e0: bc18 373e 9531 cdbd a6f1 4dbe b411 3abe
000001f0: 0052 64bb a044 903c dc39 22be d0f3 73bd
00000200: d95b 48be c6e5 5f3e 26ce 1c3e 2842 edbc
00000210: 96fa 5f3e 0340 49be 989b bbbc 72a6 37be
00000220: 34dc 1b3e b8d4 a43d 387c be3d be9e 03be
00000230: fe74 323e 907a 80bd 7879 873c 0662 92bd
00000240: e0f9 473d 6003 09bd c0ef ae3c e27e 90bd
00000250: 46dd e5bd 7820 093d 30c9 4d3c 8c1f 4e3e
00000260: 67ac 5abe 9a65 30be 23f2 0dbe e02f 193d
00000270: 4292 453e 10e7 0d3d b877 3abe 541d ab3d
00000280: 6408 393e b8c6 483d 8c36 cc3d acd5 953d
00000290: 4047 183d 785f 1c3e 34dc 01be aafa ddbd
000002a0: 2076 c23d 723d 053e 9cbe fe3d e8c3 2a3e
000002b0: c443 34be 126c 98bd c0e5 85bb 12ea 303e
000002c0: f6b1 45be 14cc 5d3e f4b4 d23d d684 5a3e
000002d0: a2a6 5d3e a013 cb3c 8aa6 033e 8f8f febd
000002e0: 984b 86bc 4a33 46be 29b5 f3bd 376b 47be
000002f0: 7490 19bd 5cf7 d63d 3814 813c e5d3 64be
00000300: 184f 42bd d814 3f3d 04db 273e 2e67 5a3e
00000310: 5897 5fbe 7a83 10be 98e2 4b3d ec22 09be
00000320: 9a94 383e e41e 2cbd 94fa d6bd 204a f13c
00000330: 6cbf b2bd a4fe b23d 0898 7cbd 3023 2ebe
00000340: b067 0cbe ae6a 0a3e b4d7 b3bd a0f3 4dbd
00000350: 9065 0cbe 1429 153e fc95 53be 8516 18be
00000360: 0017 873a dbe6 40be a685 243e 9335 4bbe
00000370: 9647 dfbd caf5 c1bd 1d96 fdbd 92f4 463e
00000380: 30fd 163d 0258 623e 2464 f1bd 4685 3a3e
00000390: 499e ddbd cd08 1ebe a997 cebd e072 283e
000003a0: e0e5 bf3d 5897 473e 5a4c 63be 2083 243c
000003b0: 2cab 073e 80b9 823d 489d 0e3d 5010 013e
000003c0: a452 623e 2416 4c3e e66d 563e 9021 14bd
000003d0: 546e 003e f755 03be 0c21 40bd 3c76 36bd
000003e0: 064c 4abe 14fa b73d d0b6 c7bd 80ab 193e
000003f0: bc34 0bbe 89a8 14be d891 503d 9060 973d

lstm.bias_ih_l0 f4 [80]
0.21818958 -0.20183732 -0.10058647 0.009758017 -0.18782163 0.040466603 -0.0074905595 0.15666984
-0.15058792 0.09094918 -0.15601017 0.21073985 -0.027439184 0.09958391 -0.13651526 -0.15416211
-0.1223478 -0.13399428 0.07655388 -0.032955885 -0.18223251 -0.18681782 0.08681294 0.20124269
-0.18728772 0.21001744 0.013443902 -0.07022603 0.1934877 -0.12504208 -0.12682894 -0.2125299
0.15803066 0.110721886 -0.10400318 0.171244 -0.17426522 -0.012701154 0.13248545 0.0397
0.017908974 -0.14316902 0.12660602 -0.09235372 -0.103528194 0.21302775 0.02127234 0.11256951
-0.19478141 -0.02519548 -0.14648007 0.035426438 0.21449429 -0.0672856 -0.043966923 -0.21036246
0.08540282 -0.03403568 0.098083965 -0.16959453 0.057085857 -0.10099247 -0.020398984 0.11498214
0.037895568 -0.14247353 -0.07731487 0.04621281 -0.0049511855 0.21836905 0.05451049 0.1314151
0.08450871 0.116054714 0.10004547 0.031096138 0.12479274 0.04230681 -0.19619097 0.15416507
00000000: 176d 5f3e 71ae 4ebe 4700 cebd 17e0 1f3c
00000010: 5054 40be 4fc0 253d 5e73 f5bb 0f6e 203e
00000020: b833 1abe 9043 ba3d 21c1 1fbe 30cc 573e
00000030: 24c8 e0bc a6f2 cb3d a8ca 0bbe acdc 1dbe
00000040: 7c91 fabd cc35 09be 48c8 9c3d c0fc 06bd
00000050: 299b 3abe 2c4d 3fbe fcca b13d 9012 4e3e
00000060: 5ac8 3fbe d00e 573e d043 5c3c aad2 8fbd
00000070: a421 463e 080b 00be 72df 01be 70a1 59be
00000080: cad2 213e 28c2 e23d 9fff d4bd 965a 2f3e
00000090: 9572 32be 8018 50bc 44aa 073e 789c 223d
000000a0: d7b5 923c e69a 12be 02a5 013e f223 bdbd
000000b0: 9706 d4bd f223 5a3e 5543 ae3c d88a e63d
000000c0: c774 47be c066 cebc dffe 15be 501b 113d
000000d0: 64a4 5b3e 08cd 89bd a916 34bd 4269 57be
000000e0: ace7 ae3d ff68 0bbd 3fe0 c83d 30aa 2dbe
000000f0: dcd2 693d 24d5 cebd c51b a7bc c27b eb3d
00000100: 6238 1b3d 95e4 11be 4257 9ebd a549 3d3d
00000110: 8e3d a2bb 239c 5f3e 6446 5f3d ae91 063e
00000120: e712 ad3d 18ae ed3d a4e4 cc3d 54bd fe3c
00000130: 5693 ff3d e849 2d3d 49e6 48be 73dd 1d3e

lstm.bias_hh_l0 f4 [80]
0.13660793 0.09172365 -0.071546584 -0.1867083 0.17935878 -0.072937876 -0.11796137 0.14817445
0.16287462 0.1433982 -0.1629335 0.05303454 0.12509581 0.119555905 -0.147572 -0.18757948
-0.088299155 0.05329476 -0.19855997 -0.18961522 0.21597895 -0.07694478 0.17044064 -0.0507423
0.029700994 -0.16822952 -0.17208654 0.10726485 -0.086108446 0.028439462 -0.13411383 0.21612838
0.19722599 0.12550166 0.21220937 -0.02019605 -0.19002163 0.19114944 -0.14844468 -0.17056578
0.044457313 0.18439838 0.019204462 -0.03180833 0.065050066 0.086446404 -0.05693518 -0.064128354
-0.21341246 0.1423898 -0.031333815 0.16518116 -0.15742919 0.10811618 0.06580778 -0.14667007
0.04617674 0.21679676 0.20128098 -0.20185155 -0.12011827 -0.09087756 0.16320953 -0.033006757
-0.11338466 0.22348896 0.023968473 -0.07006348 -0.0991576 -0.124747515 -0.18938957 0.0680916
-0.060907345 0.1067754 0.12779206 -0.024548965 -0.2233712 0.1362581 0.1948691 -0.094838
00000000: f3e2 0b3e 9cd9 bb3d 0487 92bd 7630 3fbe
00000010: d4a9 373e 7460 95bd bb95 f1bd 0bbb 173e
00000020: 9bc8 263e fad6 123e 0ad8 26be bf3a 593d
00000030: 1e19 003e bad9 f43d 1d1d 17be d614 40be
00000040: 30d6 b4bd 9b4b 5a3d 4e53 4bbe 7e2a 42be
00000050: 9629 5d3e 3a95 9dbd fe87 2e3e 28d7 4fbd
00000060: 804f f33c 5c44 2cbe 7437 30be acad db3d
00000070: a059 b0bd e0f9 e83c 2355 09be c250 5d3e
00000080: 9cf5 493e 8283 003e 6a4d 593e 3072 a5bc
00000090: 0895 42be aebc 433e e201 18be cca8 2ebe
000000a0: df18 363d eed2 3c3e ad52 9d3c 7449 02bd
000000b0: f838 853d d00a b13d dd34 69bd ba55 83bd
000000c0: cc88 5abe a2ce 113e e357 00bd 4025 293e
000000d0: 1e35 21be 046c dd3d 3bc6 863d ae30 16be
000000e0: d223 3d3d f8ff 5d3e 9a1c 4e3e 2cb2 4ebe
000000f0: 9100 f6bd 041e babd 6620 273e 1832 07bd
00000100: 3736 e8bd 4ada 643e 8859 c43c 717d 8fbd
00000110: 2413 cbbd a07b ffbd 57ef 41be 9c73 8b3d
00000120: fb79 79bd 10ad da3d ecdb 023e e91a c9bc
00000130: 6bbb 64be 3e87 0b3e c48b 473e 6d3a c2bd

fc.weight f4 [1, 20]
0.16566025 0.06254486 0.15259868 0.1254261 -0.08877419 -0.087808326 -0.013461117 0.048738874
0.21294051 -0.07875063 0.15633154 -0.1718157 0.019449402 0.16478235 -0.11296448 -0.14850777
0.14959848 0.046717256 -0.15305313 -0.022015933
00000000: d7a2 293e 8517 803d d442 1c3e b36f 003e
00000010: 3ecf b5bd dad4 b3bd 048c 5cbc 6aa2 473d
00000020: 140d 5a3e 0348 a1bd 6015 203e 74f0 2fbe
00000030: 5a54 9f3c b4bc 283e ec59 e7bd 6c12 18be
00000040: 5830 193e 985a 3f3d f6b9 1cbe c25a b4bc
