Models/5_price_predictor_50_hidden_50.pth (torch, 83735 bytes, 5 tensors)

lstm.weight_ih_l0 f4 [200, 50]
000000 de 05 41 bc 2f 3a 90 3d 9d aa 94 3d ef c1 91 bd
       -0.011781184 0.07042348 0.072591044 -0.07117068
000010 d1 dc a3 3d c7 78 bb 3d 4a ce e0 bd c2 50 83 3c
       0.08001102 0.09153896 -0.109768465 0.01602972
000020 89 86 c8 3d d7 2f 63 3d 01 e0 9e 3d 01 02 15 bd
       0.097912855 0.055465546 0.07757569 -0.036378864
000030 3e 55 a3 bc c7 b1 0f 3e 11 2b 2e bd 62 fa dc 3d
       -0.019938108 0.1403266 -0.04252154 0.10789944
000040 cf e6 d1 3d 97 bb 8a 3d e8 9b 89 bd 77 e7 ef 3c
       0.10249101 0.06774061 -0.0671919 0.029285176
000050 d9 d0 84 3d 47 b5 86 bd 3c 8f 80 3b e9 45 05 be
       0.06485147 -0.06577545 0.003923325 -0.1301495
000060 7e 76 6d bd 30 93 11 3d 3c 35 c9 3d 62 57 de bd
       -0.05797433 0.03554076 0.09824607 -0.10856511
000070 d2 d7 f1 3b 89 cd 68 3c 43 6f e0 3d 5e ce ef bd
       0.007380464 0.01420916 0.109587215 -0.11709283
000080 8f 6f dc bd 05 ab f2 bd 51 83 cf bd 78 8a c3 ba
       -0.107634656 -0.11849026 -0.101324685 -0.0014918586
000090 41 5f 9e 3b b0 f8 df bd ac a2 a7 3b 33 66 07 be
       0.0048331325 -0.10936105 0.0051158275 -0.1322258
0000a0 85 0d 9a 3d 77 27 bc 3d e3 2a 8d bd b8 44 82 3d
       0.0752211 0.09187215 -0.068929456 0.06360763
0000b0 15 14 11 bd f2 d0 eb bc e4 4c 59 3d cd 92 01 bd
       -0.035419542 -0.028786156 0.053051844 -0.03163414
0000c0 24 20 c6 3d 6e 79 c1 bc 43 0b bb 3d a4 46 10 bc
       0.09674099 -0.023617472 0.091330074 -0.008805905
0000d0 e7 0b ba bd 01 9a 21 3d cf 7c 7c bc c9 5f a4 bd
       -0.090843014 0.03945351 -0.015410616 -0.08026082
0000e0 2f d4 4e bd 1f 3d 0b be ec ed e9 bd 11 4f 0b be
       -0.050495323 -0.13597535 -0.11422333 -0.1360438
0000f0 d4 50 9e bc 82 11 9e 3d ab 24 d9 3d 84 89 fb bd
       -0.019325651 0.07718183 0.10602697 -0.122820884
000100 17 2e 88 3d 22 78 82 3b 73 a4 e7 bd 55 4c c6 bd
       0.06649416 0.003981606 -0.11310663 -0.09682528
000110 81 8a 0d 3d de 76 49 3d c8 d4 7a 3d c5 8a 91 3d
       0.034555916 0.049185626 0.06123808 0.07106546
000120 33 6f bf 3d 72 a2 94 3d d3 e1 7e bc 5d ae 07 3e
       0.093473814 0.072575465 -0.01555677 0.13250108
000130 14 d3 6b 3c 8a da e5 3b 4e 75 fa bd 9c d9 00 bc
       0.014393587 0.0070145773 -0.12229405 -0.007864382
000140 75 29 91 bd 83 0a 00 bd 8f 12 71 3d 8f 67 bf 3d
       -0.070879854 -0.031260025 0.05885559 0.09345924
000150 05 75 2b 3d 39 22 8f 3d 96 40 02 be b7 1e da 3d
       0.041859645 0.06988949 -0.1271995 0.1065039
000160 94 f6 d4 bd f4 05 f2 3d 75 15 25 bd 6e a2 33 3d
       -0.103985935 0.11817542 -0.040303666 0.043856077
000170 8e 48 0c be 56 e1 7f bd 8b 29 c4 bd db 03 09 3e
       -0.13699552 -0.062470756 -0.09578236 0.13380377
000180 b0 88 06 be 34 7d cf bd 47 af 05 3d 8b 23 aa 3c
       -0.1313808 -0.101313025 0.03263786 0.020768901
000190 2c 40 07 be 27 7b 76 bc 74 5c d1 bd 5a 76 ac bd
       -0.13208073 -0.01504401 -0.10222712 -0.08421011
0001a0 80 d2 a8 bd 6d f7 4d bd f0 7b 3e 3c 5b d5 9f 3d
       -0.08243275 -0.05028479 0.011626229 0.07804366
0001b0 87 2f 59 3d d6 73 50 3c 8a 91 2f bd 48 4c b5 bd
       0.05302384 0.01272293 -0.042863406 -0.0885244
0001c0 d5 54 0b 3e c9 33 03 be 69 17 f3 3d a5 c5 ff 3d
       0.1360658 -0.12812723 0.118696995 0.124888696
0001d0 87 50 80 bd 36 b0 a4 bd 23 e2 de bd 0c dd 9c 3d
       -0.06265359 -0.08041422 -0.10882976 0.07659349
0001e0 a3 3c 10 3e 0f 32 01 be 47 2f 03 3e 09 8f 89 bb
       0.14085631 -0.12616752 0.12811004 -0.0041979593
0001f0 c0 86 f3 bd 9a 4e 7c bc 98 c9 39 3c 4c 54 92 3d
       -0.11890936 -0.015399599 0.011339568 0.071449846
000200 e3 41 e9 bd b0 af 54 3d 02 38 19 bd 34 c6 0b 3d
       -0.1138952 0.05192536 -0.03740693 0.034124568
000210 c1 2d de bd e7 76 c0 3d 73 74 50 bd b7 fa ca bd
       -0.108485706 0.09397679 -0.050892305 -0.09911101
000220 bd 58 86 bd 25 40 92 3d fa 77 4f 3d 92 a7 c1 bc
       -0.06559894 0.07141141 0.050651528 -0.023639474
000230 1b 73 c7 3d 33 b3 9b 3b c1 b9 01 be 05 3b aa 3c
       0.097387515 0.004751587 -0.12668516 0.020780096
000240 f6 e0 1b 3d ce e1 01 be ba 33 07 3e d9 56 a8 bd
       0.038056336 -0.12683794 0.13203326 -0.0821969
000250 a0 99 93 3b 0a 9a 65 bd ab 68 d1 bd d3 70 81 3d
       0.0045043975 -0.056055106 -0.10225042 0.06320348
000260 13 a4 f3 bd 00 20 8d 3d fc 11 bc 3d 68 5d 99 3d
       -0.11896529 0.06890869 0.09183118 0.07488519
000270 e4 78 d6 3d b7 a6 5d 3c 2b c4 54 3d 2a 50 89 3d
       0.10472277 0.013528517 0.051944893 0.06704743
000280 6f 47 29 3d 21 58 e5 bd 7e c9 b2 bd 90 b2 c2 3b
       0.04132789 -0.1119845 -0.08729838 0.0059416965
000290 05 97 e9 bc b6 08 7e 3d 47 eb 06 be 0e e3 2a 3d
       -0.028514395 0.062020026 -0.13175689 0.041720442
0002a0 3a ca 8e 3c b2 1a dd bd 42 2c 96 bd 2c 7b 88 bd
       0.017430414 -0.10796107 -0.0733266 -0.06664118
0002b0 f2 37 a5 3c 69 fc 0c be d9 05 c8 bb ff 23 ed 3d
       0.020168278 -0.13768162 -0.0061042127 0.11579131
0002c0 c8 fd 9a 3c 11 be 69 3d 75 23 17 3d bc da 76 ba
       0.01891984 0.057066027 0.03689905 -0.0009416749
0002d0 ef 0f f6 bd ed 2b 07 3e 31 51 b4 3d de 30 0b be
       -0.12014758 0.1320035 0.088045485 -0.1359286
0002e0 25 b9 af 3d f6 f2 49 bb b4 a7 04 bd 79 f3 a9 bc
       0.085802354 -0.0030814982 -0.032386497 -0.02074598
0002f0 ec 77 1c 3d bc f1 0a 3d 7d 72 87 3d e0 5f 6a 3d
       0.038200304 0.033921942 0.06613634 0.05722034
000300 77 2d c6 3d 1b 3d cc bd b8 f7 6d 3d 1d 56 b1 3c
       0.096766405 -0.099725924 0.05809757 0.021647507
000310 e2 4d c8 bb f5 32 dd bd bf 11 22 3d ff 6f 0e bd
       -0.0061128 -0.10800735 0.039567705 -0.034774777
000320 c2 a7 78 bd 2e 9a f7 bd 5c a8 d7 bd 85 85 fb bd
       -0.06070686 -0.12089954 -0.10530159 -0.12281326
000330 7f 5e 4e 3b 82 56 89 3d 3e bc 18 3d 8f 4a 0a be
       0.003148943 0.06705953 0.037288897 -0.13505004
000340 a3 20 06 3e ee f9 48 3d 90 33 50 bd b3 26 87 3d
       0.13098387 0.049066477 -0.050830424 0.06599178
000350 02 78 4f 3d fa 2b 45 bd 5e 01 5e 3d 55 32 80 bd
       0.050651558 -0.048137642 0.054200523 -0.062596
000360 39 a9 e7 3d c2 06 56 3d b9 fe 9a bd 57 b3 cb 3d
       0.113115735 0.05225254 -0.07568116 0.09946316
000370 9f 86 0e 3e c8 de 44 bd 2e 8a 4e 3d a6 84 7e 3d
       0.13918541 -0.048064023 0.050424747 0.062138222
000380 cd cf 00 3e 7d 34 fd 3b 53 2a d1 3d 3e 2f 4b bd
       0.1257927 0.0077272044 0.10213151 -0.0496056
000390 82 c9 8e 3b 35 e1 df 3d d3 0c 07 be 48 b3 d2 3c
       0.0043575177 0.10931627 -0.13188486 0.025720254
0003a0 4a 4c 1d bd 19 f8 0b 3e a1 f6 06 3c e7 c5 a1 bd
       -0.038402833 0.1366886 0.008237512 -0.07899075
0003b0 be 44 10 bd f6 81 ee 3d 26 31 e1 bd 48 46 87 3d
       -0.035221808 0.11645882 -0.109957024 0.06605202
0003c0 8a c5 f4 3d ae 0c cf bd 82 88 49 3c e8 ce a3 3d
       0.1195174 -0.1010984 0.012300612 0.079984486
0003d0 c2 ea 6d 3c ac 1b 84 3d 29 25 fb 3c 0a aa de 3d
       0.014521303 0.064505905 0.030657368 0.10872276
0003e0 25 64 aa 3b 16 b0 20 3d 45 2a be bc 45 71 9e bd
       0.0051999264 0.03923043 -0.023213515 -0.07736448
0003f0 f3 0c 3e bd a3 8a 3e bd 56 68 a6 bc 4c b4 d7 bd
       -0.046399068 -0.046518933 -0.020313423 -0.10532436

lstm.weight_hh_l0 f4 [200, 50]
000000 0f d2 e9 bd 68 5b 99 3d ec 25 c8 bc e8 45 76 3d
       -0.114170186 0.074881375 -0.024432145 0.06012526
000010 a0 69 95 bd 82 7d 90 3d a8 38 c8 bc f6 b2 d5 3d
       -0.07295537 0.07055189 -0.024441078 0.10434525
000020 bc bc 0e 3d f9 79 c7 bd f4 a1 2b 3d 80 b9 5f bc
       0.03484796 -0.09740061 0.041902497 -0.0136550665
000030 1c 7a c6 bc c4 01 2e bd bd ca a0 bd bb 3b 03 3e
       -0.024228148 -0.042482153 -0.07851169 0.12815754
000040 e0 fb 49 bc 1c 1b f5 bc 40 e3 0e 3b c9 2d 97 bd
       -0.012328118 -0.029920153 0.0021802932 -0.0738178
000050 24 80 98 bc c9 05 d2 bd 90 f6 99 bc 9b fa c6 bd
       -0.01861579 -0.1025501 -0.018794328 -0.09715768
000060 2e f3 eb 3d 46 28 b1 3d 82 eb eb 3d 00 04 e8 39
       0.11520992 0.0865026 0.11519529 0.00044253469
000070 a0 95 10 be 04 7b e8 bd 30 2a 6e 3c a1 8b 0d 3e
       -0.14119577 -0.11351588 0.0145364255 0.13822795
000080 1e 85 50 bd b8 17 c0 bd c8 b5 a6 bc ab 6e d1 bd
       -0.0509082 -0.09379524 -0.020350352 -0.10226186
000090 6e 89 d5 bd 60 fd 82 bc 6c cc 96 bc 5e fd 09 be
       -0.10426603 -0.01598996 -0.018408023 -0.13475558
0000a0 e1 6c 0c 3e aa b0 a1 bd fe 3b 96 bd 7e a4 ea 3d
       0.13713409 -0.07895024 -0.07335661 0.11457156
0000b0 b0 5d 5b 3d b0 d5 c0 3d e2 b7 03 be d6 f5 e1 3d
       0.053556144 0.09415758 -0.12863114 0.110332176
0000c0 f0 1f d7 3d 17 0b 0d be 65 cd 0c 3e 40 7a ce bb
       0.105041385 -0.13773762 0.13750227 -0.0063011944
0000d0 5c c5 6d bd 68 79 c5 bd 59 e7 d8 bd 04 79 f3 bd
       -0.058049545 -0.09642297 -0.10591001 -0.11888316
0000e0 f4 98 fc bd a0 bd 22 bc 16 de eb 3d 20 c3 54 3d
       -0.12333861 -0.009932905 0.11516969 0.0519439
0000f0 16 84 4d bd 8b c2 03 be f8 05 8b bd 8a c5 76 bd
       -0.050174795 -0.12867181 -0.06788248 -0.06024698
000100 4c 9a bf 3d 47 e9 f7 bd 3f 55 0a 3e 5b 7b 05 3e
       0.09355602 -0.12105041 0.13509081 0.13035338
000110 2a 12 89 3d 0e fc 85 bd b2 f9 85 3d c0 fe 99 3b
       0.06692918 -0.06542216 0.06541766 0.004699558
000120 76 08 e7 3d 96 2e b2 3d c6 20 f1 3d f8 bd 6f 3d
       0.11280911 0.08700292 0.11773829 0.058530778
000130 d6 e6 d7 3d dc 14 c6 bd d6 a9 fe bd 87 48 e9 bd
       0.10542075 -0.09671947 -0.124347374 -0.113907866
000140 60 03 c8 3c 60 95 12 3d d2 d3 71 bd 3c 1f b4 3d
       0.024415672 0.035786986 -0.0590399 0.0879502
000150 30 1a b2 3d 5a 8f 7c bd 17 5d 0f be 90 b5 b3 bd
       0.08696401 -0.06166015 -0.14000355 -0.08774865
000160 a8 5f ad bd b0 77 57 3d de 3c e9 bd 70 f0 db 3d
       -0.084655106 0.052604377 -0.113885626 0.10739219
000170 68 86 06 be bc e3 c5 3d 4c 1a 8d bd 80 c7 b2 bd
       -0.1313721 0.096625775 -0.06889781 -0.08729458
000180 4c f6 d4 bd 00 d6 95 3d 44 bc 08 3d f0 33 fc bc
       -0.1039854 0.07316208 0.03338267 -0.030786484
000190 b3 4d 09 be 74 99 48 3d d4 6e 58 3d b0 3a f0 bd
       -0.13408546 0.04897447 0.05284007 -0.11729944
0001a0 86 74 d9 3d e5 eb 92 bd 67 9f 0d be b0 0d b9 bc
       0.10617928 -0.071738996 -0.13830338 -0.022589535
0001b0 74 47 0d be 20 c9 2d 3c 5e 0a 4c bd 88 02 6c bd
       -0.13796788 0.010607034 -0.049814574 -0.0576196
0001c0 da 61 bc bd 61 97 f3 bd 1a 1e ff bd da e5 d8 3d
       -0.09198351 -0.118941076 -0.12456913 0.10590716
0001d0 c6 39 80 3d cc 1f d6 bd 28 2c fd bd 0c 0d 07 3d
       0.062610194 -0.104552835 -0.12361938 0.032971427
0001e0 32 05 bd 3d 2c 73 10 3d 76 59 04 be 85 fd 92 bd
       0.092295066 0.035266086 -0.12924752 -0.07177261
0001f0 40 c7 ef bb 8b 11 e7 bd 88 4f a4 3d 42 6d 01 bd
       -0.0073174536 -0.11282643 0.08022982 -0.031598337
000200 10 ca b6 3d 00 19 4b bd 4b 75 01 3e 64 b6 8d bd
       0.08925259 -0.04958439 0.126424 -0.06919554
000210 62 ee 40 bd 90 ab 19 3c 93 c7 0c be 6c 5a 0e be
       -0.04710234 0.009379283 -0.13748007 -0.1390168
000220 bb f0 0f 3e 7a c0 ec bd 80 7b bf bb c2 ca 9c 3d
       0.14056675 -0.115601495 -0.00584358 0.076558605
000230 80 99 65 3d 0c 3c a6 3d 74 ca b1 3d a0 cd a2 bd
       0.056054592 0.08116922 0.08681193 -0.07949376
000240 8c 36 b4 bc 9c 13 63 3d 60 28 ff 3c 1e 8b a1 bd
       -0.021998666 0.055438623 0.031147182 -0.078878626
000250 00 51 5b ba a8 ea 4d 3d 50 38 17 bc 1f f3 09 3e
       -0.0008366257 0.050272614 -0.009229735 0.1347165
000260 ca 20 b7 3d 38 97 bd bd 84 81 4c bd bc 87 77 bd
       0.08941801 -0.09257358 -0.049928203 -0.06043218
000270 e0 5b 96 3c 40 18 5b 3b d4 a7 a0 3d 60 8f a5 bc
       0.018354356 0.0033431202 0.07844511 -0.020209968
000280 e8 a9 0a 3d 80 ab ec 3b a2 b2 06 bd bf 2c 04 3e
       0.03385344 0.007222593 -0.0328852 0.12907694
000290 a2 35 ed 3d ec 25 89 bd ec 67 a9 bc 30 4e ea 3c
       0.11582495 -0.06696686 -0.020679437 0.028601736
0002a0 f0 bf 9c 3c d2 3d 93 3d 31 82 f4 bd 96 2e 4b bd
       0.019134492 0.07189526 -0.119388945 -0.049604975
0002b0 60 e5 93 3c 34 56 31 3d 3e d1 a1 3d 3c 0e 63 bd
       0.01805371 0.0432951 0.07901238 -0.055433497
0002c0 26 f3 a9 3d 0e 62 b2 bd 92 35 d8 3d 1d a1 0f 3e
       0.0829833 -0.08710109 0.10557093 0.14026304
0002d0 52 d5 a1 3d 14 cf 31 3d 4b 6c c4 bd d5 4c 9e bd
       0.07902016 0.043410376 -0.09590968 -0.07729498
0002e0 c0 5e ff bc 6e 34 d8 bd 18 56 42 bd bc 26 1f bd
       -0.03117311 -0.10556875 -0.047445387 -0.0388553
0002f0 12 a6 a9 3d 44 69 02 3d 68 0d a8 bc e8 77 49 3d
       0.082836285 0.03183867 -0.020514205 0.049186617
000300 00 45 af 3d 58 99 9a 3d b1 a6 84 bd 00 8d a4 3a
       0.085580826 0.07548779 -0.06477106 0.0012554228
000310 40 7d 76 3b ce 45 d4 bd e2 a2 8e bd b2 17 a7 bd
       0.0037611276 -0.10364877 -0.06964661 -0.081588164
000320 64 7d a9 3d 70 44 e3 3c c2 07 a7 bd 00 39 32 bc
       0.082758695 0.027742594 -0.081557766 -0.010877848
000330 1c 97 dd bc 84 cc b0 3d 70 a4 51 3d 46 bf e3 3d
       -0.027049594 0.08632758 0.05118221 0.11120467
000340 c0 ea d8 3b e1 26 05 3e 70 a6 74 bc 00 ae 02 bb
       0.0066197813 0.13003112 -0.01493226 -0.0019940138
000350 c4 34 d0 bd a8 d1 83 bc a2 9d 09 be 38 54 88 bc
       -0.10166314 -0.016091183 -0.13439038 -0.016641721
000360 a0 ce f3 bb 72 8d f3 3d 40 a6 75 3c 00 ac 43 b9
       -0.007440403 0.11892213 0.01499325 -0.00018660724
000370 4a 32 f5 bd f4 13 67 bd 18 9e 31 bd b4 0c 2b bd
       -0.119724825 -0.056415513 -0.04336366 -0.04176016
000380 c2 ff 84 3d 04 a7 b5 3d ea af ed 3d ee 9d 46 bd
       0.064940944 0.08869746 0.116058186 -0.048490457
000390 8c b6 b0 bd 88 90 84 bd b0 1b fd 3c f9 7e 0e be
       -0.08628568 -0.0647288 0.030896991 -0.13915624
0003a0 9c 06 0b 3d a4 0a a1 3d 00 b0 bf 39 f0 1e 5b bc
       0.03394185 0.07863358 0.0003656149 -0.013374075
0003b0 a2 79 1e bd 53 fa 0b 3e 34 37 63 3d e2 87 b6 3d
       -0.038690217 0.1366971 0.055472568 0.08912636
0003c0 42 8a ad bd 70 d9 8e 3d 42 8e 45 bd 72 22 90 3d
       -0.08473636 0.06975067 -0.04823137 0.0703782
0003d0 ea 0a ee 3d f8 13 c1 bc 28 ec 76 3d f0 cc 32 3d
       0.116231754 -0.023569092 0.06028381 0.043652475
0003e0 a8 6c c9 3c 20 9c 8f 3d 29 e1 0c 3e 6a f7 8f 3d
       0.024587944 0.070122 0.13757767 0.07029612
0003f0 62 01 fd bd 0c f0 8e 3d 84 d3 07 bd f0 48 35 3d
       -0.123537794 0.06979379 -0.0331607 0.04425901

lstm.bias_ih_l0 f4 [200]
000000 4e bb fe bd c4 6d 10 3d 30 e1 45 bd 1e fc 37 bd
       -0.12438069 0.03526093 -0.04831046 -0.044918172
000010 1b 33 a7 3d 48 af da bd 46 09 e3 3b 29 32 ce 3d
       0.081640445 -0.106779635 0.0069285957 0.10068161
000020 c4 71 09 be 3a 29 0b be d3 f7 e1 bd a5 87 81 bd
       -0.13422304 -0.13589945 -0.11033597 -0.063247
000030 5a 85 a3 3c 2f f4 8a bc f6 3c d1 bd 9e 0e eb 3b
       0.019961048 -0.016962139 -0.102167055 0.0071733734
000040 5e 40 9f 3d ab fc 38 bc c3 94 8e 3d 33 17 7f bd
       0.07775949 -0.0112907095 0.06961968 -0.062277984
000050 80 e9 05 be 19 12 f3 3d 80 86 01 bc 4c ea 5a bc
       -0.13077354 0.11868686 -0.007905602 -0.013361525
000060 69 2e 09 3e 62 30 e0 3d 95 3f 39 3d de b6 ac 3d
       0.1339661 0.10946728 0.045226652 0.08433317
000070 8b fe bf 3c 50 3e b9 bd e4 4a 86 bd 4e 0a 99 bc
       0.023436805 -0.09045088 -0.06557253 -0.018681671
000080 ef 10 0e be b0 28 7a bc ff 3c 84 3c 01 0e 07 bd
       -0.13873647 -0.01526849 0.016142366 -0.03297234
000090 ae 23 a5 3d 24 96 17 3d ea d7 5c bd 0b 8d b3 3d
       0.08063446 0.03700842 -0.05391685 0.08767136
0000a0 2a 7b 8b 3d aa 99 9e bc 60 8d a3 bd c2 a4 f6 bd
       0.06810601 -0.019360382 -0.079859495 -0.12043144
0000b0 01 e9 68 3d 1b 60 8d 3d 3c be 00 be 19 92 9e 3d
       0.056862835 0.06903096 -0.12572569 0.0774271
0000c0 db 58 85 3d e7 1b e1 bd da 4b 18 bd 70 84 60 bd
       0.065110885 -0.1099165 -0.037181713 -0.054813802
0000d0 44 c4 8e bd b6 10 db 3d 56 66 fc 3d 44 fd 4b 3d
       -0.069710284 0.10696547 0.123242065 0.04980208
0000e0 b2 a1 a5 bd 95 72 10 3e 48 46 ae 3c 39 05 e5 bd
       -0.080874816 0.1410621 0.021273747 -0.11182637
0000f0 b0 61 80 3c 38 13 7c bd 98 14 bb 3c 84 97 63 bd
       0.015671581 -0.061541766 0.022836968 -0.05556442
000100 04 81 9b 3d dc f8 05 be 80 d9 0e 3c f0 83 a1 3d
       0.07592967 -0.13083214 0.008718848 0.07886493
000110 c0 cb 0a be 9e f1 a0 3d 60 3f 32 bc a0 84 58 bc
       -0.13554287 0.07858585 -0.010879368 -0.013215214
000120 14 d8 14 bd ca 86 9c 3d f6 dc b1 3d a2 9e 83 3d
       -0.03633888 0.076428965 0.08684723 0.06426741
000130 a0 65 a4 3d f0 11 7b bd 26 1a 8b 3d 38 fc 6f bd
       0.08027196 -0.061296403 0.06792097 -0.058590144
000140 4e 5c 2f bd dc fa ab 3d ce 94 9a 3d ca d1 7e bd
       -0.042812638 0.08397457 0.075479135 -0.06221179
000150 74 5d 4e bd 4b e0 0d be af 22 83 bd 92 43 da 3d
       -0.050382093 -0.13855092 -0.064031 0.10657419
000160 07 38 0e 3e cc d0 db bc dd f8 dc bd 24 da 02 bd
       0.1388856 -0.02683296 -0.107896544 -0.031946316
000170 e2 fd f5 3d 90 7a 13 bc e1 52 87 bd e2 87 87 3d
       0.12011315 -0.009001389 -0.06607605 0.066177145
000180 8c 5c a7 bd 14 32 7b bd 80 ed 3e bc d6 08 02 bd
       -0.08171949 -0.061327055 -0.011653304 -0.031746708
000190 d3 45 c6 3d 4d 13 22 3d 0e d4 ee 3d ac e8 f8 bc
       0.09681287 0.039569188 0.1166154 -0.030384384
0001a0 02 bb e0 bd 46 1f ea bd 44 89 03 bd de 84 e3 bd
       -0.10973169 -0.11431746 -0.03211333 -0.11109327
0001b0 0b cd c9 3d 9d 1c 9f bb 57 1e 0e 3e a9 ae d2 bd
       0.09853562 -0.004855706 0.13878761 -0.1028722
0001c0 ae d0 39 bd 72 24 e0 ba 53 5a 96 3d 2d c0 f8 bc
       -0.045365028 -0.0017100705 0.07341447 -0.030365074
0001d0 25 e5 0f bd 59 92 08 be f3 5c cc bd 85 cb 28 bd
       -0.03513064 -0.13337077 -0.09978666 -0.041209716
0001e0 44 88 78 3c 03 db d5 bc db ec 1a 3d 09 b3 84 3c
       0.015169207 -0.02610541 0.03782354 0.016198652
0001f0 0c f3 9b 3d be 3c c2 3c ee 84 dd bd 66 12 b9 3d
       0.07614717 0.023710605 -0.1081637 0.09036712
000200 7e 6a 96 bd f3 14 40 bd b8 51 c1 3c ac 40 85 bd
       -0.073445305 -0.04689498 0.023598537 -0.06506476
000210 c5 9d 00 3e 5d 33 ee bd 13 0e b8 bd 2b 1d 0d 3e
       0.12560184 -0.116308905 -0.089870594 0.13780658
000220 90 04 a2 bd 0d 81 a0 bd 1d e1 0a 3e c6 cc 86 3d
       -0.079110265 -0.078371145 0.13562436 0.06582026
000230 1d 03 da 3c d1 b6 10 3c ab 23 f1 bd 5a 8f 87 3d
       0.026612813 0.008832649 -0.11774381 0.06619139
000240 50 82 6f bd d0 ef b7 3d 2c 87 3a 3c 64 c6 8b 3d
       -0.058473885 0.089812875 0.011384767 0.068249494
000250 c4 65 c8 3d e2 02 f6 bd 04 69 a4 bd b6 b4 42 bd
       0.09785035 -0.120122686 -0.08027843 -0.04753562
000260 b7 b5 5c 3d f9 9c c0 bd 82 01 a6 bc 21 cb d1 3d
       0.053884234 -0.0940494 -0.02026439 0.10243822
000270 48 10 30 3d 31 ff cc 3d 0e 69 0f 3e f8 b9 b4 3d
       0.042984277 0.100096114 0.14004919 0.08824533
000280 de 08 38 b9 bd 23 ad 3d b0 17 86 bd e3 ef 0a be
       -0.0001755091 0.08454082 -0.06547487 -0.13568072
000290 0e c6 3b 3d 16 55 5c bd af eb 34 3d 22 7d ca bd
       0.045843177 -0.05379208 0.044170078 -0.098871484
0002a0 6d cc 0b 3e 2f 77 cf bc 19 76 7a 3d d6 c1 50 bc
       0.13652201 -0.025325386 0.061147783 -0.012741527
0002b0 ed e8 90 3d 88 8e 04 3e 26 d0 7a 3d 58 0f d5 bd
       0.07075677 0.12944996 0.061233662 -0.10403317
0002c0 f0 bd 7a bc a0 62 5c bd e7 56 6b bd 71 87 ce bd
       -0.015304074 -0.053804994 -0.057455923 -0.10084427
0002d0 6d 99 54 bd c3 c5 fd 3d d3 3d ce 3d fc d5 0b be
       -0.05190413 0.12391236 0.10070386 -0.13655847
0002e0 ee 8a c0 bd 06 ff 00 be d8 57 66 3d 6f 4c a6 bd
       -0.09401499 -0.12597284 0.056236118 -0.08120047
0002f0 07 22 ed 3d 03 46 81 bd dc 6f f1 3d d0 c9 07 3e
       0.11578756 -0.06312182 0.117889136 0.13260579
000300 38 81 48 3d b3 b6 0d 3d 7e db b4 bd 2a bf dc ba
       0.048951358 0.034598064 -0.08830927 -0.0016841639
000310 21 ae 0a 3e d3 5b 53 bc 36 88 45 3d 95 54 41 3d
       0.13542987 -0.012900311 0.048225604 0.047199804

lstm.bias_hh_l0 f4 [200]
000000 63 a9 19 bd ae ce a1 3d 76 94 9a 3d 1d 92 be bc
       -0.037515055 0.07900749 0.07547848 -0.023263032
000010 c4 a4 3d bd f1 a1 36 3c f3 56 df 3d b8 c4 06 be
       -0.04629971 0.011147008 0.10905256 -0.1316098
000020 1b 63 8d bc 72 df 09 be 3b 33 a0 bd 6b 34 ed bd
       -0.017259171 -0.13464144 -0.078222714 -0.115822636
000030 82 cb 9f 3c ed 55 68 bd 35 49 33 3c 30 55 9c bd
       0.01950622 -0.05672257 0.010942747 -0.07633436
000040 d7 12 05 be 90 c5 a8 bd 87 da 15 bb b8 8f d9 bd
       -0.12995468 -0.08240807 -0.0022865848 -0.10623115
000050 bf e7 0e 3e 9b af 9c 3d ef a6 2a 3d 90 77 d4 3c
       0.13955592 0.076506816 0.041663107 0.025935918
000060 10 7d e8 3c 86 01 b2 bd 9a 72 f7 3c 66 19 f0 3d
       0.028379947 -0.08691697 0.030206013 0.11723594
000070 cc 6f 67 3d a9 4d bc bd 79 d9 85 3d 8e 8a 98 3d
       0.056503102 -0.091945 0.0653562 0.07448302
000080 e3 3b d5 3d 07 c5 69 3d 5b 58 2f bd df 50 d7 bd
       0.10411813 0.057072666 -0.04280887 -0.10513472
000090 7c e2 93 bd 74 dd 8f bd 5a 9f 0e be 3e a3 28 3d
       -0.07220933 -0.07024661 -0.13927975 0.041171305
0000a0 70 d3 88 b9 0a fe ef 3c 4d fd e8 bb 4f a1 c2 bd
       -0.00026097475 0.02929594 -0.007110274 -0.095034234
0000b0 ea 29 de bd c1 bc 7a 3d 28 79 10 be 97 81 6d bd
       -0.10847838 0.061215166 -0.14108717 -0.057984915
0000c0 d3 6a 0e 3e e4 17 d4 bd cc 6f 63 3d e8 0d c7 bc
       0.13907938 -0.10356119 0.05552654 -0.024298623
0000d0 25 40 d8 bd b6 c7 a6 bd 5a 43 b2 3d 84 08 d8 3d
       -0.105591096 -0.081435606 0.087042525 0.10548499
0000e0 5c 90 4c 3d 4c fa 68 3d e0 a5 74 bc f5 3d c7 bd
       0.04994236 0.056879327 -0.014932126 -0.09728614
0000f0 90 8a 89 3c 60 27 a0 3b 48 2c 0a be 8a 4b ac 3d
       0.016789705 0.0048875064 -0.13493454 0.084128454
000100 e8 32 0f bd 40 4e 47 3b ed 42 01 3e 04 98 41 3d
       -0.034960657 0.003041163 0.12623186 0.047264114
000110 44 0e cc bd b8 81 ed bd 60 b2 01 3d 54 33 f2 bc
       -0.099636585 -0.115970075 0.031664252 -0.02956549
000120 fd 1f 05 3e 68 eb 4d 3d 30 25 07 3d af 34 05 3e
       0.13000484 0.05027333 0.03299445 0.13008378
000130 6c 91 93 3d 7e 41 b5 3d 29 8b f8 bd 9a 6f c7 3d
       0.072054714 0.08850382 -0.12135918 0.09738083
000140 92 50 9b bd a1 6b ef bd c4 b3 52 3d a0 3d 33 3c
       -0.07583727 -0.116904505 0.05144097 0.0109399855
000150 a3 5b 89 bd b6 8c d4 bd 80 5a 50 3c ec 60 fe bd
       -0.067069314 -0.10378401 0.012716889 -0.1242083
000160 74 3f 8f 3d 80 5e b4 bc 80 69 cf bb 00 01 23 ba
       0.069945246 -0.022017717 -0.0063297153 -0.00062181056
000170 90 ca 33 3d 00 50 f0 3a 04 d9 e6 bd 16 08 e5 3d
       0.04389435 0.0018334389 -0.11271861 0.11183183
000180 b6 48 fe bd 16 5b f5 3d 44 45 92 bc d1 d6 f1 bd
       -0.12416212 0.11980264 -0.017855294 -0.11808551
000190 28 dd 9f bd 1b 08 e4 bd 84 e6 fc bd cd df d6 3d
       -0.07805854 -0.111343585 -0.12348655 0.10491905
0001a0 87 04 f1 bc d8 da 8f 3d 1e bf 64 bd ac da b5 3d
       -0.029421104 0.07024163 -0.055846326 0.08879599
0001b0 25 55 b5 bd aa 14 f1 bd b6 28 c3 bd 35 47 9e bd
       -0.08854131 -0.117715195 -0.09529249 -0.077284254
0001c0 94 b4 05 bc 64 f6 1d bc 1e d0 af bc 71 c2 09 be
       -0.008160729 -0.009641264 -0.021461543 -0.1345308
0001d0 43 7f 78 3d f4 59 4b bd f2 df be 3d fd 6d 66 3d
       0.06066824 -0.049646333 0.09320058 0.056257237
0001e0 a7 50 82 3d 73 0b d6 3d c7 e4 2b 3d 43 bb 10 bd
       0.063630395 0.104514025 0.041966226 -0.035334837
0001f0 24 07 42 3d f7 4f 47 3d 4f b6 f5 3d 68 a3 08 3d
       0.04737009 0.048660245 0.11997663 0.03335896
000200 8e aa d9 bb bf 56 54 3c 2c 9a de 3d 11 c5 97 3d
       -0.006642646 0.012960135 0.1086925 0.07410634
000210 f2 50 99 bd fc c8 7a 3d 30 2a 62 3d c4 f1 89 3d
       -0.07486142 0.06122683 0.055216014 0.06735566
000220 ad b8 a0 3c 5c 28 91 3b de 09 d1 3d 12 b1 21 bd
       0.01961931 0.00442986 0.1020696 -0.039475508
000230 44 59 67 bd 61 36 0d 3d b0 b6 0c bd 06 d1 d7 bd
       -0.056481615 0.034475688 -0.034353912 -0.10537915
000240 82 f6 f8 3d 1b e1 0d be be 2e ff bd fe 98 9e 3d
       0.12156393 -0.13855402 -0.12460087 0.07744025
000250 8c b2 c1 bd 70 55 8a bd b1 58 65 bd e4 1a cb bc
       -0.09457883 -0.06754577 -0.055992786 -0.024793096
000260 bf 72 d0 3d 40 14 8e 3d c6 c0 8f 3d ed aa 56 38
       0.10178136 0.06937456 0.070191905 5.1180763e-05
000270 70 d6 03 3e f2 b6 0b 3c 75 fd 01 bd 83 e7 e0 bd
       0.1287477 0.008527504 -0.031735856 -0.10981657
000280 e8 49 f4 bc 3a 25 80 3d fa fa de 3d 5c ee c5 bd
       -0.029820397 0.062571004 0.10887714 -0.09664604
000290 13 0e 9c bd f8 2a 48 3d 54 ac c5 bd c2 02 9e bc
       -0.07619872 0.048869103 -0.096520096 -0.019288424
0002a0 9f a7 0d be 2d 6d da 3c 9a 16 1a bc d2 2c 2c 3d
       -0.13833474 0.026663387 -0.009404803 0.04203493
0002b0 1a 2a 89 bc 80 7f eb 3c b3 40 51 bc 30 b2 a7 3d
       -0.016743708 0.02874732 -0.012771773 0.081882834
0002c0 f9 04 82 3d ac ce 81 bd 31 2d 75 bd 11 6b 09 3e
       0.06348605 -0.06338248 -0.05985755 0.13419749
0002d0 ed 0f da 3d a1 e3 9b 3d 22 bc 54 3c fa a1 fa 3d
       0.10647569 0.07611776 0.0129843075 0.12237926
0002e0 4a 2f 54 bd b4 b3 e4 3c 3a 6d c3 3d 81 eb e0 bd
       -0.05180291 0.02791772 0.09542318 -0.10982419
0002f0 37 ea e5 3d 54 50 fb bc 9c a6 94 ba eb 74 fd 3d
       0.112263136 -0.030677952 -0.0011341157 0.12375816
000300 e7 ad 03 3e 2e d0 90 bd f9 08 58 bd 66 05 67 bd
       0.12859307 -0.07070957 -0.052742932 -0.056401633
000310 69 51 c8 bd ec c6 f7 bd c7 78 83 bd 4c aa f5 3c
       -0.09781153 -0.12098488 -0.06419521 0.02998843

fc.weight f4 [1, 50]
000000 81 e6 d0 3c 27 28 88 bd e4 bb ef 3b ca be 4d bd
       0.025500538 -0.066482835 0.0073160995 -0.05023078
000010 39 21 b9 3d e6 ad 49 3d 83 a0 05 bb 6d 75 08 3e
       0.0903954 0.049238108 -0.0020389862 0.13326044
000020 ff 31 00 be da bc 60 3d 73 f7 84 bd 18 04 4b 3c
       -0.12519072 0.054867603 -0.0649251 0.012391113
000030 ef 90 b9 3d 79 cc f9 bd d1 83 04 bc e8 7c f1 3d
       0.09060847 -0.12197203 -0.008088068 0.11791402
000040 19 a5 e4 bb 37 1b 8c bc 4d a9 04 be 80 c1 a7 3d
       -0.006977689 -0.01710282 -0.12955208 0.08191204
000050 60 9a 81 3d 98 9f 62 bd 89 7a c1 bd 6d a2 9a 3d
       0.06328273 -0.05532798 -0.094472 0.075505115
000060 e5 18 fc bd 9f e6 58 3d b6 c3 ad 3d 1a 05 f2 3d
       -0.12309436 0.052954312 0.084845945 0.11817379
000070 97 be ab bd 35 5c cc 3b 45 b2 85 3d 7b c5 93 bb
       -0.083859615 0.006236578 0.06528143 -0.0045096255
000080 15 35 bb 3d 50 d1 85 3c 56 c3 30 bd ad 80 0c 3e
       0.09140984 0.01633516 -0.043155037 0.13720961
000090 56 97 b9 3d 07 d0 cc 3d 33 55 b6 bd 44 d6 b2 3d
       0.09062068 0.100006156 -0.08902969 0.08732274
0000a0 00 98 03 3c 06 3f a4 3d 94 b7 fd bd 0d 65 99 bd
       0.008031845 0.08019833 -0.123885304 -0.07489977
0000b0 38 bf d2 3d ac c8 ee bd 01 63 06 be d1 7f 96 bc
       0.10290378 -0.11659369 -0.13123704 -0.018371494
0000c0 ce b1 d6 3d 13 f0 16 3d
       0.10483132 0.036850046
