Models/5_price_predictor_20_hidden_50.pth (torch, 59735 bytes, 5 tensors)

lstm.weight_ih_l0 f4 [200, 20]
000000 ae c7 dd 3d cb e7 21 bc 15 9a 45 3c 03 6e 6a 3d
       0.108291015 -0.009881924 0.012060662 0.05723382
000010 e8 12 62 3d 2e d2 d6 3d 46 65 03 3e a2 f5 f3 bc
       0.05519381 0.10489307 0.12831602 -0.029780213
000020 de c0 6d bd 16 09 61 bc 52 81 d7 3d 7f 12 ac bd
       -0.05804526 -0.013735076 0.10522713 -0.08401965
000030 86 32 c1 3d 75 f4 99 3b 45 6b cd 3d b5 1b ab 3d
       0.09433465 0.004698331 0.10030226 0.08354894
000040 c5 5d 1a 3d 03 6a b1 bd c5 c7 b5 bd 22 8c 95 3d
       0.03768708 -0.08662798 -0.08875994 0.07302119
000050 24 94 a0 3d 38 d5 b8 bc 23 b7 b3 bd 77 4e 0c 3e
       0.078407556 -0.022562608 -0.08775165 0.13701807
000060 c3 ea 05 3e 07 74 f8 bd 65 22 05 bd ea ef 2e bd
       0.13077836 -0.121315055 -0.032503504 -0.04270927
000070 f0 4a bf 3c 25 d4 94 bd cf 00 f3 3c d2 98 c8 3d
       0.023351163 -0.07267026 0.029663472 0.09794773
000080 90 00 62 3d 5a 05 53 bb ea 44 98 bc 4a ab 6b bd
       0.055176318 -0.0032199235 -0.018587548 -0.0575364
000090 ef 54 67 bd 64 b7 32 bd bd db ce 3c a3 2e 4d 3d
       -0.056477483 -0.043631926 0.025251264 0.050093304
0000a0 a1 cc 0d 3d af 4a 9c 3d 2a 3c a6 bb d8 81 35 bd
       0.034618977 0.07631432 -0.00507309 -0.04431328
0000b0 68 7e fe 3d fd f8 91 3d 57 8d fc bd 4c cd 76 3c
       0.12426454 0.07127569 -0.12331646 0.015063595
0000c0 2d f1 08 be c3 c2 80 3c de 93 a2 bd ed ad 32 bd
       -0.13373251 0.01571787 -0.0793836 -0.0436229
0000d0 13 51 09 be 46 1a ed bd e6 eb a0 3c 8d ba b5 3d
       -0.13409834 -0.11577277 0.019643735 0.08873472
0000e0 79 38 04 be fa fe fc 3d 9c 6d 1c 3d 32 6a 49 3c
       -0.12912168 0.123533204 0.03819047 0.012293385
0000f0 c3 ef c3 3d ca ed b7 3d 5c 20 f3 bd 8a a1 a2 3d
       0.09567215 0.089809015 -0.118714064 0.079409674
000100 fa 8d c5 bc fb 2b a2 bd be 15 af 3d cb b0 dc bd
       -0.024115551 -0.07918545 0.08549069 -0.10775908
000110 91 e4 3c bd 45 90 c5 3d b7 b3 ca 3d 41 bd de 3d
       -0.046116415 0.09646658 0.09897559 0.10875941
000120 65 00 06 3e 9b a0 38 3d 12 b1 0f 3d a8 8b 8e 3d
       0.13086088 0.04507504 0.035080977 0.06960231
000130 22 ad d3 3d 85 94 2f bd de 30 05 bd 64 dd d5 bc
       0.10335757 -0.04286625 -0.032517307 -0.026106544
000140 45 42 16 bd 97 f4 0c be 00 ee 1c 3c f4 5d 96 3d
       -0.036684293 -0.13765179 0.009578228 0.07342139
000150 c9 38 96 bd c9 10 b1 bd d9 2c 9a bd c7 45 4a bd
       -0.0733505 -0.0864578 -0.07528085 -0.04938295
000160 6f 62 f7 3d e2 b5 ea bc 9d 63 0c 3e b6 e5 2b bd
       0.120793216 -0.028651182 0.13709874 -0.041967116
000170 54 bc c9 bc 1c ff 1f bd 1f 0f 72 3d 66 9f 06 bc
       -0.024625935 -0.03906165 0.05909645 -0.0082167145
000180 a3 3a ee 3d 30 36 d7 bd 9e 33 0a be 4f c4 06 3d
       0.11632278 -0.10508382 -0.13496253 0.03290206
000190 09 1e 06 be 6f fb 9c 3d 8d 2a 7b bc 49 15 06 be
       -0.13097395 0.07665145 -0.015329969 -0.13094057
0001a0 dc b9 2e bd 06 90 0b 3e e8 91 dd 3d 51 69 69 3d
       -0.042657718 0.1362916 0.10818845 0.056985203
0001b0 4b 75 8c 3d aa 5e 67 3d 8c 1a 0b 3e 44 43 02 3e
       0.06858309 0.056486763 0.13584346 0.12720972
0001c0 3b e1 a8 3d 7c e8 93 3d 42 d1 08 be 60 52 33 3c
       0.08246084 0.07222077 -0.13361076 0.010944933
0001d0 a8 23 1f bc 12 5d b7 3d fc 6f ed 3d 09 07 c3 3d
       -0.009713091 0.08953299 0.11593625 0.09522826
0001e0 17 a8 ec 3d ad cf 02 be 1d 49 ea bd db 9c b7 3c
       0.11555498 -0.12774535 -0.114397265 0.022413662
0001f0 4c 74 08 be 93 c6 97 bc fc b6 81 3d f0 cd ce bd
       -0.13325614 -0.018527305 0.063337296 -0.10097873
000200 98 67 8e bd 96 3c a0 bd c3 d2 89 bd 37 2e e1 bd
       -0.06953353 -0.07824056 -0.06729653 -0.10995143
000210 7d 67 f4 bd 0f 88 f3 bd 2a 20 df 3d dd b8 9e bd
       -0.11933801 -0.118911855 0.10894807 -0.077501036
000220 09 19 7c 3d 9c 34 8e bc 55 e1 70 3b d1 e2 9f bd
       0.061547313 -0.01735907 0.0036755402 -0.07806934
000230 9a 8f bc bc 52 77 d6 39 90 91 9c bd 4e e9 18 3b
       -0.023017693 0.0004090616 -0.07644951 0.002333242
000240 41 af 43 bb 0d 4a df bd 34 58 c6 bd b1 ae 9a bb
       -0.0029859098 -0.10902796 -0.09684792 -0.004720532
000250 ff d4 f4 3d dc 0e d6 bd 1a 13 07 3e de c7 0a 3e
       0.11954688 -0.10452053 0.1319088 0.13552806
000260 4a 3a 80 bc 9f ef 01 3d 5d 31 df 3d 71 5c 09 be
       -0.015652794 0.03172266 0.10898087 -0.1341417
000270 b5 1b de 3b 45 57 d9 3c b0 58 04 3e 95 d6 00 3e
       0.0067782053 0.026530871 0.12924457 0.12581857
000280 0d 6a 21 3d a8 75 76 bd 80 6f 84 bd 1a db 06 be
       0.03940778 -0.0601708 -0.064665794 -0.13169518
000290 24 81 a8 3c 66 f9 57 3d c1 29 fc 3d 61 83 52 bb
       0.020569392 0.05272808 0.123126514 -0.0032121765
0002a0 5f 31 2c 3c 23 07 08 3e d5 31 06 3e d0 e7 66 bd
       0.010509818 0.13283972 0.13104947 -0.056373417
0002b0 5e 59 cd 3d d2 11 e0 3d b2 b9 b1 bc f9 59 0f 3e
       0.10026811 0.10940899 -0.021694992 0.13999166
0002c0 72 bd 7d 3d 3a 5b de 3d f2 64 9c bc a5 7a a0 3d
       0.061948247 0.10857244 -0.019091103 0.078358926
0002d0 36 c2 02 be 81 05 52 bc 89 12 66 3d 69 b8 0b 3e
       -0.12769398 -0.012818695 0.05617002 0.13644566
0002e0 b4 5d c2 bd 25 71 f1 bd 7f 24 01 3e 68 e6 05 be
       -0.09490529 -0.11789159 0.12611578 -0.13076174
0002f0 0f 4b 30 3b a3 6e 5f 3d a5 c1 7f 3d 76 af ce bd
       0.0026900207 0.05454887 0.062440533 -0.1009206
000300 40 9e d3 3d ca 1a 78 bb 07 d8 0e 3d ec a7 83 3d
       0.10332918 -0.0037857764 0.03487399 0.06428513
000310 07 de be 3c 82 0b c8 3d 9d cf 87 bd 92 61 81 bd
       0.02329923 0.0976782 -0.06631396 -0.06317438
000320 94 37 ee 3c 55 f4 fe 3d d6 d1 48 3d c0 4a ac bd
       0.029079236 0.124489464 0.04902824 -0.08412695
000330 c7 d8 a3 3d 84 dc 01 bd 92 07 04 bc c0 be ea 3d
       0.08000331 -0.03170444 -0.0080584455 0.11462164
000340 9e f0 c1 bc 10 1c d6 bd fa 8c cb 3b ea 22 fd 3d
       -0.023674306 -0.10454571 0.006211874 0.12360175
000350 0e 5a 4d 3d 27 20 d6 3d 36 7e 96 3d bd f2 e1 3d
       0.05013471 0.10455351 0.073482916 0.11032627
000360 f5 68 08 3d a4 cf f1 3c c5 34 a7 3d b3 3c 0c 3e
       0.03330322 0.029517956 0.08164362 0.1369503
000370 c3 c8 84 bd f9 3e cf bd 0a 86 ec bd 94 6b c0 3d
       -0.06483605 -0.10119433 -0.115490034 0.09395519
000380 8a 2e 12 bd 1e 63 fd bd 46 83 d3 bc 13 58 9e 3d
       -0.035688914 -0.12372421 -0.025819432 0.077316426
000390 39 d7 ec 3d 54 fe 08 bd 37 cb e3 3c 88 5f 8b bd
       0.11564488 -0.03344567 0.027806861 -0.068053305
0003a0 1f 88 87 bd e6 b3 cc bd 48 f1 59 bd 52 7d 69 3d
       -0.0661776 -0.099952504 -0.05320862 0.05700428
0003b0 8b 3c 26 3c 8e 5c 0e 3e 86 49 2c bd 82 b8 08 bd
       0.0101462705 0.13902494 -0.042062305 -0.033379085
0003c0 dd 8d c6 bd 70 78 8c 3d 99 6a c1 bd 44 5b f2 bd
       -0.09695027 0.06858909 -0.0944416 -0.11833814
0003d0 d7 65 9f bd f7 9e a0 3d dd f9 3f bb 95 c0 c1 bd
       -0.07783096 0.0784282 -0.0029293217 -0.0946056
0003e0 18 90 77 3d 46 f2 23 3d f0 58 01 3e 16 a2 e0 bc
       0.060440153 0.04002597 0.12631583 -0.027421039
0003f0 91 e7 2f bb 32 a1 d5 bc 59 52 0b 3e 2e 45 83 3d
       -0.0026840905 -0.02607784 0.13605632 0.06409679

lstm.weight_hh_l0 f4 [200, 50]
000000 6a a1 c7 3d a4 b9 36 3d db de 00 be 74 4f c3 bd
       0.09747584 0.044610634 -0.12585013 -0.09536639
000010 60 50 b4 bd 64 bf ac 3d c0 72 a0 3b 28 42 c2 3c
       -0.08804393 0.08434942 0.0048964918 0.023713186
000020 00 23 3d bb 5c f4 8b bc 2a 2d 80 3d 05 45 09 3e
       -0.0028859973 -0.017084293 0.06258614 0.13405235
000030 e8 fd ef 3c 0b 0c 08 3e 8c 8c 8a bc c8 99 b1 3c
       0.029295877 0.13285844 -0.016912721 0.021679774
000040 70 2f 97 3d 80 8c fa bd e0 06 62 3d aa f9 dd 3d
       0.07382095 -0.122338295 0.055182338 0.10838635
000050 f6 dc 31 bd 0a fc 8b bd 10 aa aa 3d ef 7b 0f be
       -0.043423615 -0.06835182 0.08333218 -0.1401212
000060 9c 13 6f 3d 0f 2d 06 be 9e 6e e7 3d 86 74 74 bd
       0.05836831 -0.13103126 0.113003954 -0.059681438
000070 34 19 61 3d 78 96 ae 3d 54 44 04 3d e0 91 c4 3b
       0.054955676 0.085247934 0.032291725 0.005998835
000080 5c c2 51 3d 76 c0 9b bd 91 cb 0b 3e 17 14 01 3e
       0.051210746 -0.076050684 0.13651873 0.1260532
000090 14 04 3c 3d 10 bd 98 3d 77 62 8e bd 2c be f6 bd
       0.045902327 0.07457936 -0.069523744 -0.12047991
0000a0 84 08 30 bd 6b 97 8e bd 40 67 0e 3c 11 06 a9 bd
       -0.04297687 -0.069624744 0.008691609 -0.0825311
0000b0 ea b7 65 bd 00 ea 5b 3d 78 0d f4 3c 95 83 01 3e
       -0.056083597 0.053689957 0.029791579 0.12647851
0000c0 d1 d1 ad bd 0a 93 ca bd 74 e3 7d 3d 00 69 ca 3c
       -0.08487285 -0.09891327 0.061984494 0.024708271
0000d0 dc f9 c9 3d b1 f9 0f 3e be 09 ac 3d a5 5c a8 bd
       0.0986211 0.14060093 0.08400296 -0.082207955
0000e0 cc 84 a9 3d 18 ec cd bd 82 01 ef 3d c0 2c 22 3b
       0.08277282 -0.10054797 0.116702095 0.0024745911
0000f0 82 6c cf 3d 93 3a 0f 3e 70 76 9d 3d ff 44 ad bd
       0.10128118 0.13987188 0.07688606 -0.084604256
000100 36 71 d6 3d 30 e0 21 3c 28 eb b8 bd ea 9c d7 bd
       0.10470812 0.009880111 -0.090292275 -0.10527976
000110 ac 3e 5d bd 70 62 12 3d 34 a8 7e 3d 28 8c 0c 3d
       -0.054014847 0.03573841 0.06217213 0.03431335
000120 1c a2 ee bc 78 16 4d bd d4 a5 f9 bc 4c cd 2a 3d
       -0.029130034 -0.050070256 -0.03047458 0.041699693
000130 a8 22 3f bd ab 17 08 be 20 c0 c0 bd fe 16 0e be
       -0.04666391 -0.13290279 -0.09411645 -0.13875958
000140 00 2f 82 3a da a5 a7 3d 57 57 aa bd 80 e9 9e bd
       0.000993222 0.081859306 -0.0831744 -0.0775938
000150 48 ad 2d 3d 3c 6c 6f bd 00 88 db 38 31 7c 0f be
       0.042401582 -0.05845283 0.00010468066 -0.14012219
000160 5c 6e b6 bc 40 c3 17 bb 3a 93 01 be 80 89 e6 bb
       -0.02226942 -0.002315715 -0.12653819 -0.0070354342
000170 80 44 39 bc 8c 5d f0 bd f4 5a a0 3d f9 26 81 bd
       -0.011307836 -0.11736593 0.07829848 -0.063062616
000180 30 40 a1 bc 60 48 c2 bd 8e a0 0c bd 4e f5 f7 bd
       -0.019683927 -0.09486461 -0.034332804 -0.12107335
000190 08 b2 16 3d e0 7f a4 3c 6e 7c ff 3d 28 51 a1 bc
       0.036790878 0.020080507 0.12474905 -0.019692019
0001a0 b2 81 67 bd 5c 91 1c 3d 6a 29 d2 3d c0 1e 2b bb
       -0.05652017 0.038224563 0.10261805 -0.0026110858
0001b0 e8 18 cd 3d ce 43 e7 3d bc 46 fa bd 14 1b de 3d
       0.10014516 0.112922296 -0.12220523 0.108450085
0001c0 30 63 35 3d 5e ec ba bd 4e 38 3b bd 9c dc 8a bd
       0.044284046 -0.09127115 -0.045707993 -0.06780359
0001d0 66 3e c3 3d 7a 92 bd 3d be ec 7c bd 70 23 ae 3d
       0.09533386 0.09256454 -0.061749212 0.08502853
0001e0 8e b5 a5 bd 31 b4 c0 bd 6b a8 10 3e 56 1d c2 3d
       -0.080912694 -0.09409369 0.14126746 0.09478252
0001f0 dc 17 3b bd 16 0e db bd d4 26 d6 bd 58 98 89 3d
       -0.04567705 -0.10696046 -0.104566246 0.067185104
000200 32 14 17 bd 20 c0 dc bc e8 d1 9d 3c 34 0e d2 3d
       -0.036884494 -0.026947081 0.01926513 0.10256615
000210 38 1a 07 be ca a8 68 bd 28 86 ae 3d 73 ac a9 bd
       -0.13193595 -0.056801595 0.08521682 -0.08284845
000220 de 33 f6 3d ac 5f 37 bd a2 b9 f8 3d 90 dc a1 bd
       0.12021612 -0.044768974 0.12144782 -0.07903397
000230 d2 a9 8c 3d 9c a0 a2 bc 68 94 de bc a0 73 05 3d
       0.06868328 -0.019851975 -0.027170375 0.03258097
000240 f8 50 79 3d 44 85 8c 3d d8 4b 56 3d b3 e2 09 3e
       0.060868233 0.06861356 0.052318424 0.13465385
000250 86 d5 f6 bd e4 3f 61 bd 56 51 c1 3d c8 a3 76 3d
       -0.12052445 -0.05499257 0.09439342 0.060214788
000260 90 be 21 bd e8 d1 68 bd 46 e6 f2 bd d3 32 c1 bd
       -0.039488375 -0.056840807 -0.118603274 -0.09433522
000270 d0 e9 76 3c d6 3e 84 3d 30 0e 91 3c c0 50 21 3b
       0.015070394 0.064572975 0.01770696 0.002461478
000280 10 b8 75 bc fb e1 fa bd 8e 95 97 bd 8c 01 5b bd
       -0.014997497 -0.122501336 -0.07401572 -0.053468272
000290 5d 97 84 bd dc a2 1a bd ae c0 f2 3d 62 d9 65 bd
       -0.06474183 -0.03775297 0.11853157 -0.056115516
0002a0 6e 33 35 bd ca b5 d8 3d d6 56 40 bd c0 16 42 bb
       -0.0442385 0.105815485 -0.046957813 -0.002961561
0002b0 98 22 7f bd 30 1d 42 3c 50 18 e5 3c 45 51 0e 3e
       -0.06228885 0.011847779 0.027965695 0.1389819
0002c0 ac e3 90 3d 1a ba 6d bd 38 d1 0e be 9c b8 c9 bc
       0.07074675 -0.05803881 -0.13946998 -0.024624161
0002d0 da 89 f6 3d 48 d2 38 3d 80 ed 16 3d 07 4c b3 bd
       0.12038012 0.045122415 0.03684759 -0.087547354
0002e0 8c 6b a9 bd dc 1a a2 3d 84 2f 92 bc 6e b4 91 3d
       -0.08272466 0.07915279 -0.017844923 0.07114492
0002f0 80 d8 81 3d b2 86 ab bd 80 29 b4 3c 00 fb f1 3a
       0.06340122 -0.083753005 0.021992445 0.0018461645
000300 65 3e 0a 3e fd a4 e1 bd 70 02 48 3d 2c a6 14 bd
       0.13500364 -0.11017797 0.04883045 -0.036291286
000310 f2 50 f7 bd 82 f2 f5 3d 10 ab fc bc 0f 20 06 3e
       -0.12075986 0.12009145 -0.030843288 0.13098167
000320 2a b0 f1 bd 20 c7 b3 3b 02 1b d1 3d cd 4e d6 bd
       -0.11801179 0.005486384 0.102102295 -0.10464249
000330 b4 2a 26 3d 21 65 9e bd b0 3b 47 3c 24 90 e5 bd
       0.04056807 -0.077341326 0.012160227 -0.11209133
000340 54 5d c7 bd a6 1d 02 be 40 44 d6 bb e0 41 20 3d
       -0.09734598 -0.12706622 -0.0065388978 0.039125323
000350 d6 d3 f5 3d 58 3d c7 3c 80 d9 81 ba 00 72 97 ba
       0.12003295 0.024321243 -0.0009906739 -0.001155436
000360 60 62 42 3c c0 c0 41 3d a0 b1 b9 bc 7c 30 45 3d
       0.011864275 0.04730296 -0.022667706 0.04814194
000370 60 92 98 3b 3e 83 91 3d 7c 76 01 3d 78 93 2e bd
       0.004656121 0.071051106 0.031607136 -0.042621106
000380 70 61 64 3d 4a 5c 03 bd 74 39 a2 3d de 95 1a bd
       0.055756986 -0.032070436 0.079211146 -0.03774058
000390 40 99 4d 3d 19 ca 08 3e e2 66 37 bd d0 ff 5c bd
       0.05019498 0.13358344 -0.04477585 -0.0539549
0003a0 42 ab 34 bd 46 38 e7 bd 2e 43 a8 3d 62 c9 99 3d
       -0.044108637 -0.1129003 0.082159385 0.07509114
0003b0 00 a7 5d bc 74 72 7a 3d 2e e5 7c bd 5a b7 63 bd
       -0.013528585 0.061144307 -0.061742 -0.05559478
0003c0 b0 9d dc 3d 90 52 cb 3c e0 5e e7 3c 98 16 e1 3c
       0.10772264 0.024819642 0.028243482 0.027476594
0003d0 50 53 03 3c 10 0e b9 3c f0 29 6d 3d 64 06 10 be
       0.008015469 0.022589713 0.057901323 -0.14064938
0003e0 be e2 0e bd 82 b2 df 3d 14 d4 5e bd ce a2 ad bd
       -0.034884207 0.109227195 -0.054401472 -0.08478318
0003f0 04 31 eb bd ef 5c 8c bd ec 5a ae 3d c0 5f 9c 3d
       -0.11483958 -0.06853663 0.08513436 0.0763545

lstm.bias_ih_l0 f4 [200]
000000 6b 59 3d 3d 90 87 cb 3d 57 d1 11 bd fc f1 3d 3d
       0.046227854 0.09937966 -0.035600033 0.046373352
000010 c3 27 ac 3b c8 5d 95 bd 1c 9f e3 bd 6c ff 0e 3d
       0.0052537634 -0.07293278 -0.11114332 0.034911558
000020 59 e2 0e 3e cb f6 fe bc 2b 85 27 3d 07 6d 93 bd
       0.13953532 -0.03112354 0.040898483 -0.0719853
000030 d6 e5 ee bd b9 ce ae 3d d9 bc 05 be 97 14 b6 bd
       -0.116649315 0.08535523 -0.13060321 -0.08890646
000040 4a 2c 0d be c2 cc 04 3e 60 ff 9e 3d ae 61 e0 3d
       -0.13786426 0.12968734 0.07763553 0.10956131
000050 51 14 f6 3d 9e b1 61 3c f3 55 21 bc d4 de 95 3d
       0.12015594 0.013775257 -0.009847152 0.07317892
000060 54 63 00 3e 57 dc d6 3c 07 d2 eb 3c 50 f0 10 bd
       0.1253789 0.026228113 0.028786672 -0.03538543
000070 d6 bd 80 bd 08 22 ce bd 14 7c 26 bd 0a 0b 18 bc
       -0.06286208 -0.10065085 -0.040645674 -0.009279976
000080 00 88 ea bd c5 d5 fd 3d c2 b3 58 bd fd 83 43 bd
       -0.11451721 0.12394289 -0.052905805 -0.047733296
000090 19 c9 01 be a7 46 bf 3d 18 e4 3f 3d 2c dd fa bc
       -0.12674369 0.09339648 0.046848387 -0.030623041
0000a0 d9 65 b8 bd f9 5f 5f 3c e4 e5 88 3c 0a b1 d2 3d
       -0.09003801 0.0136337215 0.016711183 0.10287674
0000b0 71 a2 8e bd d4 bd 00 3e 28 a3 07 be b5 ce 05 be
       -0.06964577 0.12572414 -0.13245833 -0.13067134
0000c0 b7 dc 3e 3d da 9b d6 bd 82 48 74 bd a0 ca 06 3c
       0.04659721 -0.10478945 -0.05963946 0.0082270205
0000d0 4c 95 0e bd e4 6f b0 bd 70 4e b5 3d f0 ec bc bc
       -0.03481035 -0.086150914 0.088528514 -0.0230622
0000e0 10 4d 81 3c ca 6a df 3d 48 31 43 3d 08 58 80 3d
       0.015783817 0.1090904 0.04765442 0.06266791
0000f0 98 4b 19 3d 3c 77 67 3d 1c b5 c3 bd 50 ba 74 3c
       0.037425607 0.056510195 -0.09556028 0.0149369985
000100 be 54 0f be fc b7 d7 bd ec b0 41 3d c8 4a 0a be
       -0.1399717 -0.10533139 0.047287866 -0.1350509
000110 69 6b b8 bd e0 06 a5 3d 48 f9 e6 bd f6 e4 ff 3d
       -0.09004862 0.08057952 -0.112780154 0.12494843
000120 38 dd 25 3d d9 59 04 3e 4c c0 8e 3d 09 e1 05 3e
       0.040494174 0.12924899 0.069702715 0.13074125
000130 64 6f d8 3d 35 73 f7 bd 40 ea 7f 3c 32 1f fb 3d
       0.10568121 -0.12082521 0.015619814 0.122618094
000140 a1 57 a1 bd 68 3f 4e 3d 38 77 fb 3c a6 45 05 be
       -0.07878042 0.050353438 0.030696496 -0.1301485
000150 c8 a2 00 bd 60 eb df 3c 24 af 17 3d 30 98 af bd
       -0.03140524 0.027333915 0.03703226 -0.08573949
000160 54 93 27 3d 80 a8 5f bc 40 1e 6f bc b6 18 30 bd
       0.040911987 -0.013651013 -0.0145946145 -0.042992316
000170 30 14 60 3d 90 ee 54 3c 34 94 55 3d 21 d8 ed bd
       0.054706752 0.012996331 0.05214329 -0.11613489
000180 aa b6 1d bd f6 1b 89 3d ac 45 14 3d c0 75 5a bd
       -0.03850428 0.06694786 0.036199257 -0.05333495
000190 97 20 bc 3d 77 99 03 be 7c ba 9c bc cc 25 db bd
       0.091859035 -0.12851511 -0.019131891 -0.107005686
0001a0 47 d2 0a 3d b3 0f 0a be 71 b1 d8 bd 3e 19 e2 bd
       0.033891942 -0.13482551 -0.10580719 -0.11039971
0001b0 76 76 08 be ba 99 f0 bb ea 72 0b 3e 8c 5d 30 bd
       -0.1332644 -0.0073425444 0.13618055 -0.043057963
0001c0 94 6e 35 bd a8 d1 eb bd 03 f7 38 bd 07 28 ef 3d
       -0.04429491 -0.11514598 -0.045157444 0.116775565
0001d0 13 db 7a bd d2 4f 85 bd c6 8f 92 3b c7 f8 f2 bc
       -0.06124408 -0.06509365 0.0044727055 -0.029659642
0001e0 39 5b d9 bb 4f c9 96 3d 6c 47 ec 3d 76 b9 e7 bd
       -0.006633189 0.07362615 0.1153706 -0.11314671
0001f0 2b 16 d1 bd e3 d3 8c 3d 10 f9 ca 3d 3c 89 b3 3d
       -0.10209306 0.06876352 0.09910786 0.0876641
000200 5a 1a 95 3d ff 2a ed 3d 59 4c f5 3d 55 03 a1 bd
       0.07280417 0.115804665 0.11977453 -0.07861964
000210 a5 e3 68 bb 89 e4 7d 3b bf 1f 0b be 7a a8 04 be
       -0.0035536077 0.0038740954 -0.13586329 -0.12954894
000220 cc c9 1e 3d d5 6b ad bd ba 59 ed 3d fa e5 e6 3d
       0.038766667 -0.08467833 0.115893796 0.11274333
000230 cf e1 e2 bd c2 4c 01 3e cc a1 4f 3c bc 9c c7 3d
       -0.11078226 0.12626937 0.012672853 0.097466916
000240 e4 f3 91 bd 2a 29 9f 3d fe 8e 5c 3d 36 16 b2 bd
       -0.071265966 0.07771523 0.053847305 -0.08695643
000250 4d 94 c1 bc 87 89 e1 3b f5 d2 ec bc fe 28 01 3e
       -0.023630286 0.0068828496 -0.028909186 0.12613294
000260 ce 3f f3 bd db 14 38 3a 31 61 82 3d a4 a9 9c bc
       -0.11877404 0.00070221507 0.06366194 -0.01912386
000270 3a 8e 7d 3d 62 6a 0b 3d 93 c4 b6 bd f6 31 cf 3c
       0.061903216 0.034037 -0.08924212 0.025292378
000280 e7 30 d7 3d 4a 14 f0 3d dd d3 f9 3d d7 fc 84 3d
       0.10507374 0.1172262 0.12198613 0.06493538
000290 59 63 20 bd f6 f5 eb 3b ae dc 8b 3d a6 80 b9 bd
       -0.039157245 0.0072009517 0.06829201 -0.09057741
0002a0 1c 9c 5a 3d a2 34 15 bd a2 e1 f3 3d 10 f7 e7 3c
       0.053371534 -0.036427148 0.119082704 0.02831605
0002b0 fe 47 06 3e 54 ad 02 3d dc 62 f6 bc f3 1c d6 3d
       0.131134 0.03190358 -0.030076437 0.104547404
0002c0 b9 5f c8 3d ad cb 75 bc e0 4d 9b 3d 5d b4 b9 bd
       0.09783883 -0.015002173 0.07583213 -0.09067605
0002d0 63 5e 0c bd ff a3 e8 bd 61 5b e0 3d 06 a8 05 3e
       -0.0342697 -0.11359405 0.10954929 0.13052377
0002e0 ff ea 2f 3b 27 f5 1f bb d4 4d fc bd d1 b3 74 bd
       0.002684295 -0.0024407597 -0.12319532 -0.0597418
0002f0 14 00 a0 bd d2 e4 8d 3d b4 69 01 3e 5e 8d 31 3c
       -0.07812515 0.0692841 0.12637979 0.010836927
000300 41 2a 25 bc 05 18 11 3e 77 c0 bc 3c 54 29 5a bd
       -0.010080875 0.14169319 0.023040993 -0.05326207
000310 4e f3 44 3d c2 84 4c bd 64 9f d0 bd 79 b1 ed bd
       0.048083596 -0.049931295 -0.10186651 -0.11606116

lstm.bias_hh_l0 f4 [200]
000000 e6 95 fa bd 82 03 fc 3d 23 e7 4d 3c c6 64 ac 3d
       -0.12235622 0.123053566 0.012567314 0.084176585
000010 6c e7 5e 3c f5 62 9a bd 6c 7e fe bc f2 0d eb 3d
       0.01360498 -0.07538406 -0.031066142 0.11477269
000020 34 60 d0 bd 5c 2b 0f be 57 37 6d 3d 3f 73 cd bd
       -0.10174599 -0.13981384 0.057914104 -0.10031747
000030 05 dc e5 3d 35 88 00 bd 11 cb d5 bd 19 8c 0f 3d
       0.11223606 -0.031379897 -0.104391225 0.035045717
000040 61 93 89 3d 10 1b 0f 3e 90 c0 0f be 78 f2 be bd
       0.067175634 0.13975167 -0.140383 -0.09323591
000050 58 04 1c bd 77 65 ae bc 9e 22 ca bd 46 0e e2 3d
       -0.03809008 -0.021288617 -0.09869884 0.11037879
000060 f2 a1 c7 3d b5 39 93 3b f5 4e 7d 3d 33 1d a5 3d
       0.097476855 0.004492963 0.061842877 0.0806221
000070 c3 29 f5 bd 33 7d 02 3e 9c 07 ac 3d 2c 1e b9 3d
       -0.11970856 0.12743072 0.08399889 0.09038958
000080 03 a1 d7 3c 61 85 c1 3b ad f7 8c 3d b7 f5 d7 bd
       0.026321894 0.0059057926 0.06883178 -0.10544913
000090 7b 8b cc bd e8 94 52 3d 6c 64 d9 3d e8 dd da 3c
       -0.09987541 0.05141154 0.10614857 0.026717141
0000a0 f8 43 eb bc 60 12 cd bd ac 9c 90 3c 05 d5 0d 3e
       -0.028718933 -0.100132704 0.017652832 0.13850792
0000b0 ab 63 7b 3d 72 4e 26 bc db f4 08 be 58 e1 da 3d
       0.061374348 -0.010150539 -0.13374655 0.10687512
0000c0 82 a5 a9 3d d9 e9 ed bd 64 54 ef bd 07 09 80 bd
       0.08283521 -0.116168685 -0.11686018 -0.06251722
0000d0 66 a0 d2 3d 6c 98 03 3d 10 e6 08 bc 91 ae 09 be
       0.102845 0.032127783 -0.008355632 -0.13445498
0000e0 4d d8 fd bd fe d5 87 bd 0e 30 a7 bd b8 43 eb 3c
       -0.12394772 -0.06632613 -0.081634626 0.028718814
0000f0 0e 41 a1 3d 84 e1 70 bd 44 d1 08 bd bc 17 eb bd
       0.07873736 -0.05880882 -0.033402696 -0.11479136
000100 fa 78 8b bd af f2 0a 3e c0 0e e6 bc 2a b9 b9 3d
       -0.06810184 0.13569139 -0.028083205 0.0906852
000110 c8 f9 01 3d 2a 23 d3 bd 74 49 d9 3d 8d 7e 91 bd
       0.03173235 -0.103094414 0.10609713 -0.07104216
000120 e4 78 7c 3d 90 d0 10 3c 5c 6e 56 3d 8d 8a f6 bd
       0.061638728 0.008838788 0.05235134 -0.12038145
000130 86 1b 98 3d a8 c3 d1 3d 16 b5 a8 3d b0 8e c3 bd
       0.07427125 0.102423966 0.082376644 -0.095487
000140 f0 6f 71 3c f6 04 69 bd df a7 0e 3e 80 c7 67 3c
       0.014736161 -0.056889497 0.13931225 0.014146686
000150 52 63 90 3d 9c 3f 93 bc d2 9c e4 3d 90 c7 44 bd
       0.07050194 -0.017974667 0.111627236 -0.04804188
000160 fe 03 d3 bd ea 5c 9e 3d c6 46 d4 3d 8e d7 69 bd
       -0.10303496 0.07732566 0.103650615 -0.057090335
000170 30 23 40 bc 30 85 bb 3c fa 3d 0b bd 48 aa ad 3d
       -0.011727139 0.022890657 -0.033994652 0.08479744
000180 ec 3b 94 bd 92 80 c3 3d c4 fb 0c be 4a 27 c4 bd
       -0.07237992 0.09546007 -0.13767916 -0.09577806
000190 11 44 fa 3d 57 d0 e0 bd 57 f0 10 be ee 8c 5f 3d
       0.12220014 -0.10977238 -0.14154182 0.05457776
0001a0 c8 c5 d4 bd c9 46 0c 3e 8d d6 03 be 10 88 78 bd
       -0.10389286 0.13698877 -0.12874813 -0.060676634
0001b0 16 c0 ad 3d 70 8f d2 bc c1 5e 05 3c 42 f0 79 3d
       0.08483903 -0.025703162 0.008140267 0.061020143
0001c0 9a 6d e1 bd 13 6a c0 bd 7d 51 83 bd 89 22 c3 bd
       -0.11007233 -0.09395232 -0.06412027 -0.095280714
0001d0 ee 54 99 bb 1e ea 81 bd 42 7e 17 bd 31 b3 de 3d
       -0.004679314 -0.063434824 -0.036985643 0.10874022
0001e0 17 cd d8 3d 69 13 9e bd 10 14 c0 3d e5 ba b4 3d
       0.10585993 -0.07718546 0.093788266 0.0882471
0001f0 fa 23 9c bc a2 03 3f 39 fb 9d 33 bd 42 86 0d be
       -0.019060124 0.00018216533 -0.043851834 -0.13820747
000200 0a ef e2 3d 50 83 08 3e 62 11 5a 3d 0d 29 70 3c
       0.11080749 0.13331342 0.053239234 0.014658225
000210 1a b8 ef 3d 93 85 a4 bd 92 77 c5 3d d7 01 8f 3d
       0.117050365 -0.0803329 0.09641947 0.06982773
000220 55 66 53 bb 7f 96 2a bd 08 23 cc 3d d8 df 50 3d
       -0.003225704 -0.04164743 0.09967619 0.050994724
000230 eb 31 85 3d b6 68 95 3c 61 16 ad 3d 92 2a d6 bd
       0.06503662 0.018238407 0.08451534 -0.104573384
000240 cc e8 45 3d 11 f6 67 3c a5 f5 09 3e 86 3e 10 be
       0.048317716 0.014157788 0.13472612 -0.14086351
000250 60 c2 90 3d 34 3d ea bc ee 4c 7f 3d de 3b ce 3c
       0.07068324 -0.028593637 0.062329225 0.025175031
000260 d2 f5 bc 3d 42 98 dd 3d a3 26 c1 3d a2 74 9a 3d
       0.09226574 0.108200565 0.094311975 0.07541777
000270 cd 11 a8 3d 36 b4 ca bd 2f e1 d6 3d af 2e 04 3e
       0.0820652 -0.09897654 0.10492169 0.12908433
000280 6c 58 b2 3c cc bf e0 bc 07 cc da 3d c1 15 fe 3d
       0.021770678 -0.027435206 0.106834464 0.12406493
000290 fb de 55 3d 68 de ef bc 8e bd 43 bd 26 fc 75 3d
       0.052214604 -0.029280856 -0.047788195 0.06005492
0002a0 f1 33 eb 3d b9 a1 e2 3d 17 c0 0d 3e e8 7d b9 3d
       0.114845164 0.110660024 0.13842808 0.09057218
0002b0 7b 83 6e 3c dd c1 8b bc ac fa af bc 2a 8c 58 3d
       0.014557715 -0.017060215 -0.021481834 0.052868046
0002c0 2f 62 0d 3e 8b b3 e9 3a 2c fd 8a 3d aa 4c e9 3d
       0.13806985 0.0017829997 0.0678657 0.11391576
0002d0 82 e8 01 be a3 ac d5 3d b3 eb c1 3d bc c1 80 3d
       -0.12686351 0.104333185 0.09468784 0.06286952
0002e0 2d f1 24 bd b8 19 60 bd c9 dc c3 3d d1 25 d7 bc
       -0.040269066 -0.054712027 0.09563596 -0.02626315
0002f0 a2 7a 99 bc 32 a1 0f 3d f8 59 e6 bc b2 ab 03 bc
       -0.018735234 0.035065837 -0.028119072 -0.008036541
000300 c0 05 02 be f4 0f b6 bd f4 84 c3 3d 7a 38 01 be
       -0.12697506 -0.088897616 0.09546843 -0.126192
000310 66 cc 72 bd 41 46 e4 3d b4 a0 a1 bd bb 65 f2 3d
       -0.05927696 0.11146212 -0.0789198 0.1183581

fc.weight f4 [1, 50]
000000 40 de 70 bd f7 d5 13 3d 26 3c 24 3d 3d a6 88 bd
       -0.058805704 0.036092725 0.040096425 -0.066723324
000010 e1 66 55 3c f1 d2 56 3d 00 dc 4f 3c 0e c6 5b bc
       0.0130250165 0.052447263 0.012686729 -0.013413919
000020 77 4a 82 bc ed 85 33 bd 4d 8c 82 3d f0 66 07 3d
       -0.015904648 -0.043828893 0.063744165 0.033057153
000030 32 a8 d2 bd 7e 8b ba bd 91 76 d1 bc 36 a2 cd bd
       -0.10285987 -0.09108637 -0.025569232 -0.10040705
000040 bb 1b e6 bd 21 69 87 bc 52 67 bb 3d 47 7e 31 3b
       -0.11235758 -0.016529622 0.09150566 0.0027083324
000050 15 84 07 be 13 01 17 bc 9a ae 93 bd 91 a8 80 bd
       -0.13233979 -0.009216565 -0.07211037 -0.062821515
000060 54 53 b2 bd 38 6c f3 bd 66 f9 cd 3d 2a a8 69 bd
       -0.087073 -0.118858755 0.100573346 -0.05704514
000070 dc 82 d7 3d c9 2b fb 3d c6 68 60 3d f7 9a 42 3c
       0.10523006 0.12264211 0.05478742 0.011877767
000080 f4 6c 05 3b 66 52 b0 3d 4b 08 8b 3a d3 7e 9b bd
       0.002035913 0.08609466 0.001060733 -0.07592549
000090 39 27 fe bd 7f ad 01 bc 1a 70 4d 3d a0 e9 de 3c
       -0.12409825 -0.0079149 0.050155737 0.02721101
0000a0 a0 12 fa bd be 43 05 3d f6 cc 23 3c 63 f6 34 bd
       -0.12210584 0.032535307 0.009997597 -0.044180285
0000b0 e4 3a eb bd 51 e6 df bc e5 c8 9c 3d 4f 73 00 be
       -0.11485842 -0.027331503 0.07655505 -0.12543987
0000c0 d2 9a aa 3c 32 e1 8e bd
       0.020825777 -0.06976546
